node {
  name: "batch_size/tags"
  op: "Const"
  attr {
    key: "_output_shapes"
    value {
      list {
        shape {
        }
      }
    }
  }
  attr {
    key: "dtype"
    value {
      type: DT_STRING
    }
  }
  attr {
    key: "value"
    value {
      tensor {
        dtype: DT_STRING
        tensor_shape {
        }
        string_val: "batch_size"
      }
    }
  }
}
node {
  name: "batch_size/values"
  op: "Const"
  attr {
    key: "_output_shapes"
    value {
      list {
        shape {
        }
      }
    }
  }
  attr {
    key: "dtype"
    value {
      type: DT_INT32
    }
  }
  attr {
    key: "value"
    value {
      tensor {
        dtype: DT_INT32
        tensor_shape {
        }
        int_val: 10
      }
    }
  }
}
node {
  name: "batch_size"
  op: "ScalarSummary"
  input: "batch_size/tags"
  input: "batch_size/values"
  attr {
    key: "T"
    value {
      type: DT_INT32
    }
  }
  attr {
    key: "_output_shapes"
    value {
      list {
        shape {
        }
      }
    }
  }
}
node {
  name: "batch_size_per_gpu/tags"
  op: "Const"
  attr {
    key: "_output_shapes"
    value {
      list {
        shape {
        }
      }
    }
  }
  attr {
    key: "dtype"
    value {
      type: DT_STRING
    }
  }
  attr {
    key: "value"
    value {
      tensor {
        dtype: DT_STRING
        tensor_shape {
        }
        string_val: "batch_size_per_gpu"
      }
    }
  }
}
node {
  name: "batch_size_per_gpu/values"
  op: "Const"
  attr {
    key: "_output_shapes"
    value {
      list {
        shape {
        }
      }
    }
  }
  attr {
    key: "dtype"
    value {
      type: DT_INT32
    }
  }
  attr {
    key: "value"
    value {
      tensor {
        dtype: DT_INT32
        tensor_shape {
        }
        int_val: 10
      }
    }
  }
}
node {
  name: "batch_size_per_gpu"
  op: "ScalarSummary"
  input: "batch_size_per_gpu/tags"
  input: "batch_size_per_gpu/values"
  attr {
    key: "T"
    value {
      type: DT_INT32
    }
  }
  attr {
    key: "_output_shapes"
    value {
      list {
        shape {
        }
      }
    }
  }
}
node {
  name: "icdar2017_data_provider/parallel_read/filenames/Const"
  op: "Const"
  device: "/device:CPU:0"
  attr {
    key: "_output_shapes"
    value {
      list {
        shape {
          dim {
            size: 1
          }
        }
      }
    }
  }
  attr {
    key: "dtype"
    value {
      type: DT_STRING
    }
  }
  attr {
    key: "value"
    value {
      tensor {
        dtype: DT_STRING
        tensor_shape {
          dim {
            size: 1
          }
        }
        string_val: "/home/niddal/Desktop/PhD_projects/pixel_link-master/datasets/TF/icdar2017_train.tfrecord"
      }
    }
  }
}
node {
  name: "icdar2017_data_provider/parallel_read/filenames/Size"
  op: "Const"
  device: "/device:CPU:0"
  attr {
    key: "_output_shapes"
    value {
      list {
        shape {
        }
      }
    }
  }
  attr {
    key: "dtype"
    value {
      type: DT_INT32
    }
  }
  attr {
    key: "value"
    value {
      tensor {
        dtype: DT_INT32
        tensor_shape {
        }
        int_val: 1
      }
    }
  }
}
node {
  name: "icdar2017_data_provider/parallel_read/filenames/Greater/y"
  op: "Const"
  device: "/device:CPU:0"
  attr {
    key: "_output_shapes"
    value {
      list {
        shape {
        }
      }
    }
  }
  attr {
    key: "dtype"
    value {
      type: DT_INT32
    }
  }
  attr {
    key: "value"
    value {
      tensor {
        dtype: DT_INT32
        tensor_shape {
        }
        int_val: 0
      }
    }
  }
}
node {
  name: "icdar2017_data_provider/parallel_read/filenames/Greater"
  op: "Greater"
  input: "icdar2017_data_provider/parallel_read/filenames/Size"
  input: "icdar2017_data_provider/parallel_read/filenames/Greater/y"
  device: "/device:CPU:0"
  attr {
    key: "T"
    value {
      type: DT_INT32
    }
  }
  attr {
    key: "_output_shapes"
    value {
      list {
        shape {
        }
      }
    }
  }
}
node {
  name: "icdar2017_data_provider/parallel_read/filenames/Assert/Const"
  op: "Const"
  device: "/device:CPU:0"
  attr {
    key: "_output_shapes"
    value {
      list {
        shape {
        }
      }
    }
  }
  attr {
    key: "dtype"
    value {
      type: DT_STRING
    }
  }
  attr {
    key: "value"
    value {
      tensor {
        dtype: DT_STRING
        tensor_shape {
        }
        string_val: "string_input_producer requires a non-null input tensor"
      }
    }
  }
}
node {
  name: "icdar2017_data_provider/parallel_read/filenames/Assert/Assert/data_0"
  op: "Const"
  device: "/device:CPU:0"
  attr {
    key: "_output_shapes"
    value {
      list {
        shape {
        }
      }
    }
  }
  attr {
    key: "dtype"
    value {
      type: DT_STRING
    }
  }
  attr {
    key: "value"
    value {
      tensor {
        dtype: DT_STRING
        tensor_shape {
        }
        string_val: "string_input_producer requires a non-null input tensor"
      }
    }
  }
}
node {
  name: "icdar2017_data_provider/parallel_read/filenames/Assert/Assert"
  op: "Assert"
  input: "icdar2017_data_provider/parallel_read/filenames/Greater"
  input: "icdar2017_data_provider/parallel_read/filenames/Assert/Assert/data_0"
  device: "/device:CPU:0"
  attr {
    key: "T"
    value {
      list {
        type: DT_STRING
      }
    }
  }
  attr {
    key: "summarize"
    value {
      i: 3
    }
  }
}
node {
  name: "icdar2017_data_provider/parallel_read/filenames/Identity"
  op: "Identity"
  input: "icdar2017_data_provider/parallel_read/filenames/Const"
  input: "^icdar2017_data_provider/parallel_read/filenames/Assert/Assert"
  device: "/device:CPU:0"
  attr {
    key: "T"
    value {
      type: DT_STRING
    }
  }
  attr {
    key: "_output_shapes"
    value {
      list {
        shape {
          dim {
            size: 1
          }
        }
      }
    }
  }
}
node {
  name: "icdar2017_data_provider/parallel_read/filenames/RandomShuffle"
  op: "RandomShuffle"
  input: "icdar2017_data_provider/parallel_read/filenames/Identity"
  device: "/device:CPU:0"
  attr {
    key: "T"
    value {
      type: DT_STRING
    }
  }
  attr {
    key: "_output_shapes"
    value {
      list {
        shape {
          dim {
            size: 1
          }
        }
      }
    }
  }
  attr {
    key: "seed"
    value {
      i: 0
    }
  }
  attr {
    key: "seed2"
    value {
      i: 0
    }
  }
}
node {
  name: "icdar2017_data_provider/parallel_read/filenames"
  op: "FIFOQueueV2"
  device: "/device:CPU:0"
  attr {
    key: "_output_shapes"
    value {
      list {
        shape {
        }
      }
    }
  }
  attr {
    key: "capacity"
    value {
      i: 32
    }
  }
  attr {
    key: "component_types"
    value {
      list {
        type: DT_STRING
      }
    }
  }
  attr {
    key: "container"
    value {
      s: ""
    }
  }
  attr {
    key: "shapes"
    value {
      list {
        shape {
        }
      }
    }
  }
  attr {
    key: "shared_name"
    value {
      s: ""
    }
  }
}
node {
  name: "icdar2017_data_provider/parallel_read/filenames/filenames_EnqueueMany"
  op: "QueueEnqueueManyV2"
  input: "icdar2017_data_provider/parallel_read/filenames"
  input: "icdar2017_data_provider/parallel_read/filenames/RandomShuffle"
  device: "/device:CPU:0"
  attr {
    key: "Tcomponents"
    value {
      list {
        type: DT_STRING
      }
    }
  }
  attr {
    key: "timeout_ms"
    value {
      i: -1
    }
  }
}
node {
  name: "icdar2017_data_provider/parallel_read/filenames/filenames_Close"
  op: "QueueCloseV2"
  input: "icdar2017_data_provider/parallel_read/filenames"
  device: "/device:CPU:0"
  attr {
    key: "cancel_pending_enqueues"
    value {
      b: false
    }
  }
}
node {
  name: "icdar2017_data_provider/parallel_read/filenames/filenames_Close_1"
  op: "QueueCloseV2"
  input: "icdar2017_data_provider/parallel_read/filenames"
  device: "/device:CPU:0"
  attr {
    key: "cancel_pending_enqueues"
    value {
      b: true
    }
  }
}
node {
  name: "icdar2017_data_provider/parallel_read/filenames/filenames_Size"
  op: "QueueSizeV2"
  input: "icdar2017_data_provider/parallel_read/filenames"
  device: "/device:CPU:0"
  attr {
    key: "_output_shapes"
    value {
      list {
        shape {
        }
      }
    }
  }
}
node {
  name: "icdar2017_data_provider/parallel_read/filenames/ToFloat"
  op: "Cast"
  input: "icdar2017_data_provider/parallel_read/filenames/filenames_Size"
  device: "/device:CPU:0"
  attr {
    key: "DstT"
    value {
      type: DT_FLOAT
    }
  }
  attr {
    key: "SrcT"
    value {
      type: DT_INT32
    }
  }
  attr {
    key: "Truncate"
    value {
      b: false
    }
  }
  attr {
    key: "_output_shapes"
    value {
      list {
        shape {
        }
      }
    }
  }
}
node {
  name: "icdar2017_data_provider/parallel_read/filenames/mul/y"
  op: "Const"
  device: "/device:CPU:0"
  attr {
    key: "_output_shapes"
    value {
      list {
        shape {
        }
      }
    }
  }
  attr {
    key: "dtype"
    value {
      type: DT_FLOAT
    }
  }
  attr {
    key: "value"
    value {
      tensor {
        dtype: DT_FLOAT
        tensor_shape {
        }
        float_val: 0.03125
      }
    }
  }
}
node {
  name: "icdar2017_data_provider/parallel_read/filenames/mul"
  op: "Mul"
  input: "icdar2017_data_provider/parallel_read/filenames/ToFloat"
  input: "icdar2017_data_provider/parallel_read/filenames/mul/y"
  device: "/device:CPU:0"
  attr {
    key: "T"
    value {
      type: DT_FLOAT
    }
  }
  attr {
    key: "_output_shapes"
    value {
      list {
        shape {
        }
      }
    }
  }
}
node {
  name: "icdar2017_data_provider/parallel_read/filenames/fraction_of_32_full/tags"
  op: "Const"
  device: "/device:CPU:0"
  attr {
    key: "_output_shapes"
    value {
      list {
        shape {
        }
      }
    }
  }
  attr {
    key: "dtype"
    value {
      type: DT_STRING
    }
  }
  attr {
    key: "value"
    value {
      tensor {
        dtype: DT_STRING
        tensor_shape {
        }
        string_val: "icdar2017_data_provider/parallel_read/filenames/fraction_of_32_full"
      }
    }
  }
}
node {
  name: "icdar2017_data_provider/parallel_read/filenames/fraction_of_32_full"
  op: "ScalarSummary"
  input: "icdar2017_data_provider/parallel_read/filenames/fraction_of_32_full/tags"
  input: "icdar2017_data_provider/parallel_read/filenames/mul"
  device: "/device:CPU:0"
  attr {
    key: "T"
    value {
      type: DT_FLOAT
    }
  }
  attr {
    key: "_output_shapes"
    value {
      list {
        shape {
        }
      }
    }
  }
}
node {
  name: "icdar2017_data_provider/parallel_read/common_queue"
  op: "RandomShuffleQueueV2"
  device: "/device:CPU:0"
  attr {
    key: "_output_shapes"
    value {
      list {
        shape {
        }
      }
    }
  }
  attr {
    key: "capacity"
    value {
      i: 10000
    }
  }
  attr {
    key: "component_types"
    value {
      list {
        type: DT_STRING
        type: DT_STRING
      }
    }
  }
  attr {
    key: "container"
    value {
      s: ""
    }
  }
  attr {
    key: "min_after_dequeue"
    value {
      i: 7000
    }
  }
  attr {
    key: "seed"
    value {
      i: 0
    }
  }
  attr {
    key: "seed2"
    value {
      i: 0
    }
  }
  attr {
    key: "shapes"
    value {
      list {
      }
    }
  }
  attr {
    key: "shared_name"
    value {
      s: ""
    }
  }
}
node {
  name: "icdar2017_data_provider/parallel_read/common_queue_Size"
  op: "QueueSizeV2"
  input: "icdar2017_data_provider/parallel_read/common_queue"
  device: "/device:CPU:0"
  attr {
    key: "_output_shapes"
    value {
      list {
        shape {
        }
      }
    }
  }
}
node {
  name: "icdar2017_data_provider/parallel_read/ToFloat"
  op: "Cast"
  input: "icdar2017_data_provider/parallel_read/common_queue_Size"
  device: "/device:CPU:0"
  attr {
    key: "DstT"
    value {
      type: DT_FLOAT
    }
  }
  attr {
    key: "SrcT"
    value {
      type: DT_INT32
    }
  }
  attr {
    key: "Truncate"
    value {
      b: false
    }
  }
  attr {
    key: "_output_shapes"
    value {
      list {
        shape {
        }
      }
    }
  }
}
node {
  name: "icdar2017_data_provider/parallel_read/mul/y"
  op: "Const"
  device: "/device:CPU:0"
  attr {
    key: "_output_shapes"
    value {
      list {
        shape {
        }
      }
    }
  }
  attr {
    key: "dtype"
    value {
      type: DT_FLOAT
    }
  }
  attr {
    key: "value"
    value {
      tensor {
        dtype: DT_FLOAT
        tensor_shape {
        }
        float_val: 9.99999974738e-05
      }
    }
  }
}
node {
  name: "icdar2017_data_provider/parallel_read/mul"
  op: "Mul"
  input: "icdar2017_data_provider/parallel_read/ToFloat"
  input: "icdar2017_data_provider/parallel_read/mul/y"
  device: "/device:CPU:0"
  attr {
    key: "T"
    value {
      type: DT_FLOAT
    }
  }
  attr {
    key: "_output_shapes"
    value {
      list {
        shape {
        }
      }
    }
  }
}
node {
  name: "icdar2017_data_provider/parallel_read/fraction_of_10000_full/tags"
  op: "Const"
  device: "/device:CPU:0"
  attr {
    key: "_output_shapes"
    value {
      list {
        shape {
        }
      }
    }
  }
  attr {
    key: "dtype"
    value {
      type: DT_STRING
    }
  }
  attr {
    key: "value"
    value {
      tensor {
        dtype: DT_STRING
        tensor_shape {
        }
        string_val: "icdar2017_data_provider/parallel_read/fraction_of_10000_full"
      }
    }
  }
}
node {
  name: "icdar2017_data_provider/parallel_read/fraction_of_10000_full"
  op: "ScalarSummary"
  input: "icdar2017_data_provider/parallel_read/fraction_of_10000_full/tags"
  input: "icdar2017_data_provider/parallel_read/mul"
  device: "/device:CPU:0"
  attr {
    key: "T"
    value {
      type: DT_FLOAT
    }
  }
  attr {
    key: "_output_shapes"
    value {
      list {
        shape {
        }
      }
    }
  }
}
node {
  name: "icdar2017_data_provider/parallel_read/TFRecordReaderV2"
  op: "TFRecordReaderV2"
  device: "/device:CPU:0"
  attr {
    key: "_output_shapes"
    value {
      list {
        shape {
        }
      }
    }
  }
  attr {
    key: "compression_type"
    value {
      s: ""
    }
  }
  attr {
    key: "container"
    value {
      s: ""
    }
  }
  attr {
    key: "shared_name"
    value {
      s: ""
    }
  }
}
node {
  name: "icdar2017_data_provider/parallel_read/ReaderReadV2"
  op: "ReaderReadV2"
  input: "icdar2017_data_provider/parallel_read/TFRecordReaderV2"
  input: "icdar2017_data_provider/parallel_read/filenames"
  device: "/device:CPU:0"
  attr {
    key: "_output_shapes"
    value {
      list {
        shape {
        }
        shape {
        }
      }
    }
  }
}
node {
  name: "icdar2017_data_provider/parallel_read/common_queue_enqueue"
  op: "QueueEnqueueV2"
  input: "icdar2017_data_provider/parallel_read/common_queue"
  input: "icdar2017_data_provider/parallel_read/ReaderReadV2"
  input: "icdar2017_data_provider/parallel_read/ReaderReadV2:1"
  device: "/device:CPU:0"
  attr {
    key: "Tcomponents"
    value {
      list {
        type: DT_STRING
        type: DT_STRING
      }
    }
  }
  attr {
    key: "timeout_ms"
    value {
      i: -1
    }
  }
}
node {
  name: "icdar2017_data_provider/parallel_read/common_queue_Close"
  op: "QueueCloseV2"
  input: "icdar2017_data_provider/parallel_read/common_queue"
  device: "/device:CPU:0"
  attr {
    key: "cancel_pending_enqueues"
    value {
      b: false
    }
  }
}
node {
  name: "icdar2017_data_provider/parallel_read/common_queue_Close_1"
  op: "QueueCloseV2"
  input: "icdar2017_data_provider/parallel_read/common_queue"
  device: "/device:CPU:0"
  attr {
    key: "cancel_pending_enqueues"
    value {
      b: true
    }
  }
}
node {
  name: "icdar2017_data_provider/parallel_read/common_queue_Dequeue"
  op: "QueueDequeueV2"
  input: "icdar2017_data_provider/parallel_read/common_queue"
  device: "/device:CPU:0"
  attr {
    key: "_output_shapes"
    value {
      list {
        shape {
          unknown_rank: true
        }
        shape {
          unknown_rank: true
        }
      }
    }
  }
  attr {
    key: "component_types"
    value {
      list {
        type: DT_STRING
        type: DT_STRING
      }
    }
  }
  attr {
    key: "timeout_ms"
    value {
      i: -1
    }
  }
}
node {
  name: "icdar2017_data_provider/ParseSingleExample/key_image/encoded"
  op: "Const"
  device: "/device:CPU:0"
  attr {
    key: "_output_shapes"
    value {
      list {
        shape {
        }
      }
    }
  }
  attr {
    key: "dtype"
    value {
      type: DT_STRING
    }
  }
  attr {
    key: "value"
    value {
      tensor {
        dtype: DT_STRING
        tensor_shape {
        }
        string_val: ""
      }
    }
  }
}
node {
  name: "icdar2017_data_provider/ParseSingleExample/Reshape/shape"
  op: "Const"
  device: "/device:CPU:0"
  attr {
    key: "_output_shapes"
    value {
      list {
        shape {
          dim {
          }
        }
      }
    }
  }
  attr {
    key: "dtype"
    value {
      type: DT_INT32
    }
  }
  attr {
    key: "value"
    value {
      tensor {
        dtype: DT_INT32
        tensor_shape {
          dim {
          }
        }
      }
    }
  }
}
node {
  name: "icdar2017_data_provider/ParseSingleExample/Reshape"
  op: "Reshape"
  input: "icdar2017_data_provider/ParseSingleExample/key_image/encoded"
  input: "icdar2017_data_provider/ParseSingleExample/Reshape/shape"
  device: "/device:CPU:0"
  attr {
    key: "T"
    value {
      type: DT_STRING
    }
  }
  attr {
    key: "Tshape"
    value {
      type: DT_INT32
    }
  }
  attr {
    key: "_output_shapes"
    value {
      list {
        shape {
        }
      }
    }
  }
}
node {
  name: "icdar2017_data_provider/ParseSingleExample/key_image/filename"
  op: "Const"
  device: "/device:CPU:0"
  attr {
    key: "_output_shapes"
    value {
      list {
        shape {
        }
      }
    }
  }
  attr {
    key: "dtype"
    value {
      type: DT_STRING
    }
  }
  attr {
    key: "value"
    value {
      tensor {
        dtype: DT_STRING
        tensor_shape {
        }
        string_val: ""
      }
    }
  }
}
node {
  name: "icdar2017_data_provider/ParseSingleExample/Reshape_1/shape"
  op: "Const"
  device: "/device:CPU:0"
  attr {
    key: "_output_shapes"
    value {
      list {
        shape {
          dim {
          }
        }
      }
    }
  }
  attr {
    key: "dtype"
    value {
      type: DT_INT32
    }
  }
  attr {
    key: "value"
    value {
      tensor {
        dtype: DT_INT32
        tensor_shape {
          dim {
          }
        }
      }
    }
  }
}
node {
  name: "icdar2017_data_provider/ParseSingleExample/Reshape_1"
  op: "Reshape"
  input: "icdar2017_data_provider/ParseSingleExample/key_image/filename"
  input: "icdar2017_data_provider/ParseSingleExample/Reshape_1/shape"
  device: "/device:CPU:0"
  attr {
    key: "T"
    value {
      type: DT_STRING
    }
  }
  attr {
    key: "Tshape"
    value {
      type: DT_INT32
    }
  }
  attr {
    key: "_output_shapes"
    value {
      list {
        shape {
        }
      }
    }
  }
}
node {
  name: "icdar2017_data_provider/ParseSingleExample/key_image/format"
  op: "Const"
  device: "/device:CPU:0"
  attr {
    key: "_output_shapes"
    value {
      list {
        shape {
        }
      }
    }
  }
  attr {
    key: "dtype"
    value {
      type: DT_STRING
    }
  }
  attr {
    key: "value"
    value {
      tensor {
        dtype: DT_STRING
        tensor_shape {
        }
        string_val: "jpeg"
      }
    }
  }
}
node {
  name: "icdar2017_data_provider/ParseSingleExample/Reshape_2/shape"
  op: "Const"
  device: "/device:CPU:0"
  attr {
    key: "_output_shapes"
    value {
      list {
        shape {
          dim {
          }
        }
      }
    }
  }
  attr {
    key: "dtype"
    value {
      type: DT_INT32
    }
  }
  attr {
    key: "value"
    value {
      tensor {
        dtype: DT_INT32
        tensor_shape {
          dim {
          }
        }
      }
    }
  }
}
node {
  name: "icdar2017_data_provider/ParseSingleExample/Reshape_2"
  op: "Reshape"
  input: "icdar2017_data_provider/ParseSingleExample/key_image/format"
  input: "icdar2017_data_provider/ParseSingleExample/Reshape_2/shape"
  device: "/device:CPU:0"
  attr {
    key: "T"
    value {
      type: DT_STRING
    }
  }
  attr {
    key: "Tshape"
    value {
      type: DT_INT32
    }
  }
  attr {
    key: "_output_shapes"
    value {
      list {
        shape {
        }
      }
    }
  }
}
node {
  name: "icdar2017_data_provider/ParseSingleExample/Const"
  op: "Const"
  device: "/device:CPU:0"
  attr {
    key: "_output_shapes"
    value {
      list {
        shape {
          dim {
          }
        }
      }
    }
  }
  attr {
    key: "dtype"
    value {
      type: DT_INT64
    }
  }
  attr {
    key: "value"
    value {
      tensor {
        dtype: DT_INT64
        tensor_shape {
          dim {
          }
        }
      }
    }
  }
}
node {
  name: "icdar2017_data_provider/ParseSingleExample/ParseSingleExample"
  op: "ParseSingleExample"
  input: "icdar2017_data_provider/parallel_read/common_queue_Dequeue:1"
  input: "icdar2017_data_provider/ParseSingleExample/Reshape"
  input: "icdar2017_data_provider/ParseSingleExample/Reshape_1"
  input: "icdar2017_data_provider/ParseSingleExample/Reshape_2"
  input: "icdar2017_data_provider/ParseSingleExample/Const"
  device: "/device:CPU:0"
  attr {
    key: "Tdense"
    value {
      list {
        type: DT_STRING
        type: DT_STRING
        type: DT_STRING
        type: DT_INT64
      }
    }
  }
  attr {
    key: "_output_shapes"
    value {
      list {
        shape {
          dim {
            size: -1
          }
          dim {
            size: 1
          }
        }
        shape {
          dim {
            size: -1
          }
          dim {
            size: 1
          }
        }
        shape {
          dim {
            size: -1
          }
          dim {
            size: 1
          }
        }
        shape {
          dim {
            size: -1
          }
          dim {
            size: 1
          }
        }
        shape {
          dim {
            size: -1
          }
          dim {
            size: 1
          }
        }
        shape {
          dim {
            size: -1
          }
          dim {
            size: 1
          }
        }
        shape {
          dim {
            size: -1
          }
          dim {
            size: 1
          }
        }
        shape {
          dim {
            size: -1
          }
          dim {
            size: 1
          }
        }
        shape {
          dim {
            size: -1
          }
          dim {
            size: 1
          }
        }
        shape {
          dim {
            size: -1
          }
          dim {
            size: 1
          }
        }
        shape {
          dim {
            size: -1
          }
          dim {
            size: 1
          }
        }
        shape {
          dim {
            size: -1
          }
          dim {
            size: 1
          }
        }
        shape {
          dim {
            size: -1
          }
          dim {
            size: 1
          }
        }
        shape {
          dim {
            size: -1
          }
        }
        shape {
          dim {
            size: -1
          }
        }
        shape {
          dim {
            size: -1
          }
        }
        shape {
          dim {
            size: -1
          }
        }
        shape {
          dim {
            size: -1
          }
        }
        shape {
          dim {
            size: -1
          }
        }
        shape {
          dim {
            size: -1
          }
        }
        shape {
          dim {
            size: -1
          }
        }
        shape {
          dim {
            size: -1
          }
        }
        shape {
          dim {
            size: -1
          }
        }
        shape {
          dim {
            size: -1
          }
        }
        shape {
          dim {
            size: -1
          }
        }
        shape {
          dim {
            size: -1
          }
        }
        shape {
          dim {
            size: 1
          }
        }
        shape {
          dim {
            size: 1
          }
        }
        shape {
          dim {
            size: 1
          }
        }
        shape {
          dim {
            size: 1
          }
        }
        shape {
          dim {
            size: 1
          }
        }
        shape {
          dim {
            size: 1
          }
        }
        shape {
          dim {
            size: 1
          }
        }
        shape {
          dim {
            size: 1
          }
        }
        shape {
          dim {
            size: 1
          }
        }
        shape {
          dim {
            size: 1
          }
        }
        shape {
          dim {
            size: 1
          }
        }
        shape {
          dim {
            size: 1
          }
        }
        shape {
          dim {
            size: 1
          }
        }
        shape {
        }
        shape {
        }
        shape {
        }
        shape {
          dim {
            size: 3
          }
        }
      }
    }
  }
  attr {
    key: "dense_keys"
    value {
      list {
        s: "image/encoded"
        s: "image/filename"
        s: "image/format"
        s: "image/shape"
      }
    }
  }
  attr {
    key: "dense_shapes"
    value {
      list {
        shape {
        }
        shape {
        }
        shape {
        }
        shape {
          dim {
            size: 3
          }
        }
      }
    }
  }
  attr {
    key: "num_sparse"
    value {
      i: 13
    }
  }
  attr {
    key: "sparse_keys"
    value {
      list {
        s: "image/object/bbox/label"
        s: "image/object/bbox/x1"
        s: "image/object/bbox/x2"
        s: "image/object/bbox/x3"
        s: "image/object/bbox/x4"
        s: "image/object/bbox/xmax"
        s: "image/object/bbox/xmin"
        s: "image/object/bbox/y1"
        s: "image/object/bbox/y2"
        s: "image/object/bbox/y3"
        s: "image/object/bbox/y4"
        s: "image/object/bbox/ymax"
        s: "image/object/bbox/ymin"
      }
    }
  }
  attr {
    key: "sparse_types"
    value {
      list {
        type: DT_INT64
        type: DT_FLOAT
        type: DT_FLOAT
        type: DT_FLOAT
        type: DT_FLOAT
        type: DT_FLOAT
        type: DT_FLOAT
        type: DT_FLOAT
        type: DT_FLOAT
        type: DT_FLOAT
        type: DT_FLOAT
        type: DT_FLOAT
        type: DT_FLOAT
      }
    }
  }
}
node {
  name: "icdar2017_data_provider/Reshape/shape"
  op: "Const"
  device: "/device:CPU:0"
  attr {
    key: "_output_shapes"
    value {
      list {
        shape {
          dim {
          }
        }
      }
    }
  }
  attr {
    key: "dtype"
    value {
      type: DT_INT32
    }
  }
  attr {
    key: "value"
    value {
      tensor {
        dtype: DT_INT32
        tensor_shape {
          dim {
          }
        }
      }
    }
  }
}
node {
  name: "icdar2017_data_provider/Reshape"
  op: "Reshape"
  input: "icdar2017_data_provider/ParseSingleExample/ParseSingleExample:39"
  input: "icdar2017_data_provider/Reshape/shape"
  device: "/device:CPU:0"
  attr {
    key: "T"
    value {
      type: DT_STRING
    }
  }
  attr {
    key: "Tshape"
    value {
      type: DT_INT32
    }
  }
  attr {
    key: "_output_shapes"
    value {
      list {
        shape {
        }
      }
    }
  }
}
node {
  name: "icdar2017_data_provider/Reshape_1/shape"
  op: "Const"
  device: "/device:CPU:0"
  attr {
    key: "_output_shapes"
    value {
      list {
        shape {
          dim {
          }
        }
      }
    }
  }
  attr {
    key: "dtype"
    value {
      type: DT_INT32
    }
  }
  attr {
    key: "value"
    value {
      tensor {
        dtype: DT_INT32
        tensor_shape {
          dim {
          }
        }
      }
    }
  }
}
node {
  name: "icdar2017_data_provider/Reshape_1"
  op: "Reshape"
  input: "icdar2017_data_provider/ParseSingleExample/ParseSingleExample:40"
  input: "icdar2017_data_provider/Reshape_1/shape"
  device: "/device:CPU:0"
  attr {
    key: "T"
    value {
      type: DT_STRING
    }
  }
  attr {
    key: "Tshape"
    value {
      type: DT_INT32
    }
  }
  attr {
    key: "_output_shapes"
    value {
      list {
        shape {
        }
      }
    }
  }
}
node {
  name: "icdar2017_data_provider/Reshape_2/shape"
  op: "Const"
  device: "/device:CPU:0"
  attr {
    key: "_output_shapes"
    value {
      list {
        shape {
          dim {
          }
        }
      }
    }
  }
  attr {
    key: "dtype"
    value {
      type: DT_INT32
    }
  }
  attr {
    key: "value"
    value {
      tensor {
        dtype: DT_INT32
        tensor_shape {
          dim {
          }
        }
      }
    }
  }
}
node {
  name: "icdar2017_data_provider/Reshape_2"
  op: "Reshape"
  input: "icdar2017_data_provider/ParseSingleExample/ParseSingleExample:41"
  input: "icdar2017_data_provider/Reshape_2/shape"
  device: "/device:CPU:0"
  attr {
    key: "T"
    value {
      type: DT_STRING
    }
  }
  attr {
    key: "Tshape"
    value {
      type: DT_INT32
    }
  }
  attr {
    key: "_output_shapes"
    value {
      list {
        shape {
        }
      }
    }
  }
}
node {
  name: "icdar2017_data_provider/Reshape_3/shape"
  op: "Const"
  device: "/device:CPU:0"
  attr {
    key: "_output_shapes"
    value {
      list {
        shape {
          dim {
            size: 1
          }
        }
      }
    }
  }
  attr {
    key: "dtype"
    value {
      type: DT_INT32
    }
  }
  attr {
    key: "value"
    value {
      tensor {
        dtype: DT_INT32
        tensor_shape {
          dim {
            size: 1
          }
        }
        int_val: 3
      }
    }
  }
}
node {
  name: "icdar2017_data_provider/Reshape_3"
  op: "Reshape"
  input: "icdar2017_data_provider/ParseSingleExample/ParseSingleExample:42"
  input: "icdar2017_data_provider/Reshape_3/shape"
  device: "/device:CPU:0"
  attr {
    key: "T"
    value {
      type: DT_INT64
    }
  }
  attr {
    key: "Tshape"
    value {
      type: DT_INT32
    }
  }
  attr {
    key: "_output_shapes"
    value {
      list {
        shape {
          dim {
            size: 3
          }
        }
      }
    }
  }
}
node {
  name: "icdar2017_data_provider/SparseToDense/default_value"
  op: "Const"
  device: "/device:CPU:0"
  attr {
    key: "_output_shapes"
    value {
      list {
        shape {
        }
      }
    }
  }
  attr {
    key: "dtype"
    value {
      type: DT_FLOAT
    }
  }
  attr {
    key: "value"
    value {
      tensor {
        dtype: DT_FLOAT
        tensor_shape {
        }
        float_val: 0.0
      }
    }
  }
}
node {
  name: "icdar2017_data_provider/SparseToDense"
  op: "SparseToDense"
  input: "icdar2017_data_provider/ParseSingleExample/ParseSingleExample:4"
  input: "icdar2017_data_provider/ParseSingleExample/ParseSingleExample:30"
  input: "icdar2017_data_provider/ParseSingleExample/ParseSingleExample:17"
  input: "icdar2017_data_provider/SparseToDense/default_value"
  device: "/device:CPU:0"
  attr {
    key: "T"
    value {
      type: DT_FLOAT
    }
  }
  attr {
    key: "Tindices"
    value {
      type: DT_INT64
    }
  }
  attr {
    key: "_output_shapes"
    value {
      list {
        shape {
          dim {
            size: -1
          }
        }
      }
    }
  }
  attr {
    key: "validate_indices"
    value {
      b: true
    }
  }
}
node {
  name: "icdar2017_data_provider/Equal/y"
  op: "Const"
  device: "/device:CPU:0"
  attr {
    key: "_output_shapes"
    value {
      list {
        shape {
        }
      }
    }
  }
  attr {
    key: "dtype"
    value {
      type: DT_STRING
    }
  }
  attr {
    key: "value"
    value {
      tensor {
        dtype: DT_STRING
        tensor_shape {
        }
        string_val: "raw"
      }
    }
  }
}
node {
  name: "icdar2017_data_provider/Equal"
  op: "Equal"
  input: "icdar2017_data_provider/Reshape_2"
  input: "icdar2017_data_provider/Equal/y"
  device: "/device:CPU:0"
  attr {
    key: "T"
    value {
      type: DT_STRING
    }
  }
  attr {
    key: "_output_shapes"
    value {
      list {
        shape {
        }
      }
    }
  }
}
node {
  name: "icdar2017_data_provider/Equal_1/y"
  op: "Const"
  device: "/device:CPU:0"
  attr {
    key: "_output_shapes"
    value {
      list {
        shape {
        }
      }
    }
  }
  attr {
    key: "dtype"
    value {
      type: DT_STRING
    }
  }
  attr {
    key: "value"
    value {
      tensor {
        dtype: DT_STRING
        tensor_shape {
        }
        string_val: "RAW"
      }
    }
  }
}
node {
  name: "icdar2017_data_provider/Equal_1"
  op: "Equal"
  input: "icdar2017_data_provider/Reshape_2"
  input: "icdar2017_data_provider/Equal_1/y"
  device: "/device:CPU:0"
  attr {
    key: "T"
    value {
      type: DT_STRING
    }
  }
  attr {
    key: "_output_shapes"
    value {
      list {
        shape {
        }
      }
    }
  }
}
node {
  name: "icdar2017_data_provider/LogicalOr"
  op: "LogicalOr"
  input: "icdar2017_data_provider/Equal"
  input: "icdar2017_data_provider/Equal_1"
  device: "/device:CPU:0"
  attr {
    key: "_output_shapes"
    value {
      list {
        shape {
        }
      }
    }
  }
}
node {
  name: "icdar2017_data_provider/case/preds_c"
  op: "Pack"
  input: "icdar2017_data_provider/LogicalOr"
  device: "/device:CPU:0"
  attr {
    key: "N"
    value {
      i: 1
    }
  }
  attr {
    key: "T"
    value {
      type: DT_BOOL
    }
  }
  attr {
    key: "_output_shapes"
    value {
      list {
        shape {
          dim {
            size: 1
          }
        }
      }
    }
  }
  attr {
    key: "axis"
    value {
      i: 0
    }
  }
}
node {
  name: "icdar2017_data_provider/case/Cast"
  op: "Cast"
  input: "icdar2017_data_provider/case/preds_c"
  device: "/device:CPU:0"
  attr {
    key: "DstT"
    value {
      type: DT_INT32
    }
  }
  attr {
    key: "SrcT"
    value {
      type: DT_BOOL
    }
  }
  attr {
    key: "Truncate"
    value {
      b: false
    }
  }
  attr {
    key: "_output_shapes"
    value {
      list {
        shape {
          dim {
            size: 1
          }
        }
      }
    }
  }
}
node {
  name: "icdar2017_data_provider/case/Const"
  op: "Const"
  device: "/device:CPU:0"
  attr {
    key: "_output_shapes"
    value {
      list {
        shape {
          dim {
            size: 1
          }
        }
      }
    }
  }
  attr {
    key: "dtype"
    value {
      type: DT_INT32
    }
  }
  attr {
    key: "value"
    value {
      tensor {
        dtype: DT_INT32
        tensor_shape {
          dim {
            size: 1
          }
        }
        int_val: 0
      }
    }
  }
}
node {
  name: "icdar2017_data_provider/case/num_true_conds"
  op: "Sum"
  input: "icdar2017_data_provider/case/Cast"
  input: "icdar2017_data_provider/case/Const"
  device: "/device:CPU:0"
  attr {
    key: "T"
    value {
      type: DT_INT32
    }
  }
  attr {
    key: "Tidx"
    value {
      type: DT_INT32
    }
  }
  attr {
    key: "_output_shapes"
    value {
      list {
        shape {
        }
      }
    }
  }
  attr {
    key: "keep_dims"
    value {
      b: false
    }
  }
}
node {
  name: "icdar2017_data_provider/case/n_true_conds"
  op: "Const"
  device: "/device:CPU:0"
  attr {
    key: "_output_shapes"
    value {
      list {
        shape {
        }
      }
    }
  }
  attr {
    key: "dtype"
    value {
      type: DT_INT32
    }
  }
  attr {
    key: "value"
    value {
      tensor {
        dtype: DT_INT32
        tensor_shape {
        }
        int_val: 1
      }
    }
  }
}
node {
  name: "icdar2017_data_provider/case/LessEqual"
  op: "LessEqual"
  input: "icdar2017_data_provider/case/num_true_conds"
  input: "icdar2017_data_provider/case/n_true_conds"
  device: "/device:CPU:0"
  attr {
    key: "T"
    value {
      type: DT_INT32
    }
  }
  attr {
    key: "_output_shapes"
    value {
      list {
        shape {
        }
      }
    }
  }
}
node {
  name: "icdar2017_data_provider/case/Assert/Const"
  op: "Const"
  device: "/device:CPU:0"
  attr {
    key: "_output_shapes"
    value {
      list {
        shape {
        }
      }
    }
  }
  attr {
    key: "dtype"
    value {
      type: DT_STRING
    }
  }
  attr {
    key: "value"
    value {
      tensor {
        dtype: DT_STRING
        tensor_shape {
        }
        string_val: "…"
      }
    }
  }
}
node {
  name: "icdar2017_data_provider/case/Assert/AssertGuard/Switch"
  op: "Switch"
  input: "icdar2017_data_provider/case/LessEqual"
  input: "icdar2017_data_provider/case/LessEqual"
  device: "/device:CPU:0"
  attr {
    key: "T"
    value {
      type: DT_BOOL
    }
  }
  attr {
    key: "_output_shapes"
    value {
      list {
        shape {
        }
        shape {
        }
      }
    }
  }
}
node {
  name: "icdar2017_data_provider/case/Assert/AssertGuard/switch_t"
  op: "Identity"
  input: "icdar2017_data_provider/case/Assert/AssertGuard/Switch:1"
  device: "/device:CPU:0"
  attr {
    key: "T"
    value {
      type: DT_BOOL
    }
  }
  attr {
    key: "_output_shapes"
    value {
      list {
        shape {
        }
      }
    }
  }
}
node {
  name: "icdar2017_data_provider/case/Assert/AssertGuard/switch_f"
  op: "Identity"
  input: "icdar2017_data_provider/case/Assert/AssertGuard/Switch"
  device: "/device:CPU:0"
  attr {
    key: "T"
    value {
      type: DT_BOOL
    }
  }
  attr {
    key: "_output_shapes"
    value {
      list {
        shape {
        }
      }
    }
  }
}
node {
  name: "icdar2017_data_provider/case/Assert/AssertGuard/pred_id"
  op: "Identity"
  input: "icdar2017_data_provider/case/LessEqual"
  device: "/device:CPU:0"
  attr {
    key: "T"
    value {
      type: DT_BOOL
    }
  }
  attr {
    key: "_output_shapes"
    value {
      list {
        shape {
        }
      }
    }
  }
}
node {
  name: "icdar2017_data_provider/case/Assert/AssertGuard/NoOp"
  op: "NoOp"
  input: "^icdar2017_data_provider/case/Assert/AssertGuard/switch_t"
  device: "/device:CPU:0"
}
node {
  name: "icdar2017_data_provider/case/Assert/AssertGuard/control_dependency"
  op: "Identity"
  input: "icdar2017_data_provider/case/Assert/AssertGuard/switch_t"
  input: "^icdar2017_data_provider/case/Assert/AssertGuard/NoOp"
  device: "/device:CPU:0"
  attr {
    key: "T"
    value {
      type: DT_BOOL
    }
  }
  attr {
    key: "_class"
    value {
      list {
        s: "loc:@icdar2017_data_provider/case/Assert/AssertGuard/switch_t"
      }
    }
  }
  attr {
    key: "_output_shapes"
    value {
      list {
        shape {
        }
      }
    }
  }
}
node {
  name: "icdar2017_data_provider/case/Assert/AssertGuard/Assert/data_0"
  op: "Const"
  input: "^icdar2017_data_provider/case/Assert/AssertGuard/switch_f"
  device: "/device:CPU:0"
  attr {
    key: "_output_shapes"
    value {
      list {
        shape {
        }
      }
    }
  }
  attr {
    key: "dtype"
    value {
      type: DT_STRING
    }
  }
  attr {
    key: "value"
    value {
      tensor {
        dtype: DT_STRING
        tensor_shape {
        }
        string_val: "…"
      }
    }
  }
}
node {
  name: "icdar2017_data_provider/case/Assert/AssertGuard/Assert"
  op: "Assert"
  input: "icdar2017_data_provider/case/Assert/AssertGuard/Assert/Switch"
  input: "icdar2017_data_provider/case/Assert/AssertGuard/Assert/data_0"
  input: "icdar2017_data_provider/case/Assert/AssertGuard/Assert/Switch_1"
  device: "/device:CPU:0"
  attr {
    key: "T"
    value {
      list {
        type: DT_STRING
        type: DT_BOOL
      }
    }
  }
  attr {
    key: "summarize"
    value {
      i: 1
    }
  }
}
node {
  name: "icdar2017_data_provider/case/Assert/AssertGuard/Assert/Switch"
  op: "Switch"
  input: "icdar2017_data_provider/case/LessEqual"
  input: "icdar2017_data_provider/case/Assert/AssertGuard/pred_id"
  device: "/device:CPU:0"
  attr {
    key: "T"
    value {
      type: DT_BOOL
    }
  }
  attr {
    key: "_class"
    value {
      list {
        s: "loc:@icdar2017_data_provider/case/LessEqual"
      }
    }
  }
  attr {
    key: "_output_shapes"
    value {
      list {
        shape {
        }
        shape {
        }
      }
    }
  }
}
node {
  name: "icdar2017_data_provider/case/Assert/AssertGuard/Assert/Switch_1"
  op: "Switch"
  input: "icdar2017_data_provider/case/preds_c"
  input: "icdar2017_data_provider/case/Assert/AssertGuard/pred_id"
  device: "/device:CPU:0"
  attr {
    key: "T"
    value {
      type: DT_BOOL
    }
  }
  attr {
    key: "_class"
    value {
      list {
        s: "loc:@icdar2017_data_provider/case/preds_c"
      }
    }
  }
  attr {
    key: "_output_shapes"
    value {
      list {
        shape {
          dim {
            size: 1
          }
        }
        shape {
          dim {
            size: 1
          }
        }
      }
    }
  }
}
node {
  name: "icdar2017_data_provider/case/Assert/AssertGuard/control_dependency_1"
  op: "Identity"
  input: "icdar2017_data_provider/case/Assert/AssertGuard/switch_f"
  input: "^icdar2017_data_provider/case/Assert/AssertGuard/Assert"
  device: "/device:CPU:0"
  attr {
    key: "T"
    value {
      type: DT_BOOL
    }
  }
  attr {
    key: "_class"
    value {
      list {
        s: "loc:@icdar2017_data_provider/case/Assert/AssertGuard/switch_f"
      }
    }
  }
  attr {
    key: "_output_shapes"
    value {
      list {
        shape {
        }
      }
    }
  }
}
node {
  name: "icdar2017_data_provider/case/Assert/AssertGuard/Merge"
  op: "Merge"
  input: "icdar2017_data_provider/case/Assert/AssertGuard/control_dependency_1"
  input: "icdar2017_data_provider/case/Assert/AssertGuard/control_dependency"
  device: "/device:CPU:0"
  attr {
    key: "N"
    value {
      i: 2
    }
  }
  attr {
    key: "T"
    value {
      type: DT_BOOL
    }
  }
  attr {
    key: "_output_shapes"
    value {
      list {
        shape {
        }
        shape {
        }
      }
    }
  }
}
node {
  name: "icdar2017_data_provider/case/cond/Switch"
  op: "Switch"
  input: "icdar2017_data_provider/LogicalOr"
  input: "icdar2017_data_provider/LogicalOr"
  input: "^icdar2017_data_provider/case/Assert/AssertGuard/Merge"
  device: "/device:CPU:0"
  attr {
    key: "T"
    value {
      type: DT_BOOL
    }
  }
  attr {
    key: "_output_shapes"
    value {
      list {
        shape {
        }
        shape {
        }
      }
    }
  }
}
node {
  name: "icdar2017_data_provider/case/cond/switch_t"
  op: "Identity"
  input: "icdar2017_data_provider/case/cond/Switch:1"
  device: "/device:CPU:0"
  attr {
    key: "T"
    value {
      type: DT_BOOL
    }
  }
  attr {
    key: "_output_shapes"
    value {
      list {
        shape {
        }
      }
    }
  }
}
node {
  name: "icdar2017_data_provider/case/cond/switch_f"
  op: "Identity"
  input: "icdar2017_data_provider/case/cond/Switch"
  device: "/device:CPU:0"
  attr {
    key: "T"
    value {
      type: DT_BOOL
    }
  }
  attr {
    key: "_output_shapes"
    value {
      list {
        shape {
        }
      }
    }
  }
}
node {
  name: "icdar2017_data_provider/case/cond/pred_id"
  op: "Identity"
  input: "icdar2017_data_provider/LogicalOr"
  input: "^icdar2017_data_provider/case/Assert/AssertGuard/Merge"
  device: "/device:CPU:0"
  attr {
    key: "T"
    value {
      type: DT_BOOL
    }
  }
  attr {
    key: "_output_shapes"
    value {
      list {
        shape {
        }
      }
    }
  }
}
node {
  name: "icdar2017_data_provider/case/cond/DecodeRaw"
  op: "DecodeRaw"
  input: "icdar2017_data_provider/case/cond/DecodeRaw/Switch:1"
  input: "^icdar2017_data_provider/case/Assert/AssertGuard/Merge"
  device: "/device:CPU:0"
  attr {
    key: "_output_shapes"
    value {
      list {
        shape {
          dim {
            size: -1
          }
        }
      }
    }
  }
  attr {
    key: "little_endian"
    value {
      b: true
    }
  }
  attr {
    key: "out_type"
    value {
      type: DT_UINT8
    }
  }
}
node {
  name: "icdar2017_data_provider/case/cond/DecodeRaw/Switch"
  op: "Switch"
  input: "icdar2017_data_provider/Reshape"
  input: "icdar2017_data_provider/case/cond/pred_id"
  device: "/device:CPU:0"
  attr {
    key: "T"
    value {
      type: DT_STRING
    }
  }
  attr {
    key: "_class"
    value {
      list {
        s: "loc:@icdar2017_data_provider/Reshape"
      }
    }
  }
  attr {
    key: "_output_shapes"
    value {
      list {
        shape {
        }
        shape {
        }
      }
    }
  }
}
node {
  name: "icdar2017_data_provider/case/cond/is_jpeg/Substr/pos"
  op: "Const"
  input: "^icdar2017_data_provider/case/Assert/AssertGuard/Merge"
  input: "^icdar2017_data_provider/case/cond/switch_f"
  device: "/device:CPU:0"
  attr {
    key: "_output_shapes"
    value {
      list {
        shape {
        }
      }
    }
  }
  attr {
    key: "dtype"
    value {
      type: DT_INT32
    }
  }
  attr {
    key: "value"
    value {
      tensor {
        dtype: DT_INT32
        tensor_shape {
        }
        int_val: 0
      }
    }
  }
}
node {
  name: "icdar2017_data_provider/case/cond/is_jpeg/Substr/len"
  op: "Const"
  input: "^icdar2017_data_provider/case/Assert/AssertGuard/Merge"
  input: "^icdar2017_data_provider/case/cond/switch_f"
  device: "/device:CPU:0"
  attr {
    key: "_output_shapes"
    value {
      list {
        shape {
        }
      }
    }
  }
  attr {
    key: "dtype"
    value {
      type: DT_INT32
    }
  }
  attr {
    key: "value"
    value {
      tensor {
        dtype: DT_INT32
        tensor_shape {
        }
        int_val: 3
      }
    }
  }
}
node {
  name: "icdar2017_data_provider/case/cond/is_jpeg/Substr"
  op: "Substr"
  input: "icdar2017_data_provider/case/cond/is_jpeg/Substr/Switch"
  input: "icdar2017_data_provider/case/cond/is_jpeg/Substr/pos"
  input: "icdar2017_data_provider/case/cond/is_jpeg/Substr/len"
  device: "/device:CPU:0"
  attr {
    key: "T"
    value {
      type: DT_INT32
    }
  }
  attr {
    key: "_output_shapes"
    value {
      list {
        shape {
        }
      }
    }
  }
  attr {
    key: "unit"
    value {
      s: "BYTE"
    }
  }
}
node {
  name: "icdar2017_data_provider/case/cond/is_jpeg/Substr/Switch"
  op: "Switch"
  input: "icdar2017_data_provider/Reshape"
  input: "icdar2017_data_provider/case/cond/pred_id"
  device: "/device:CPU:0"
  attr {
    key: "T"
    value {
      type: DT_STRING
    }
  }
  attr {
    key: "_class"
    value {
      list {
        s: "loc:@icdar2017_data_provider/Reshape"
      }
    }
  }
  attr {
    key: "_output_shapes"
    value {
      list {
        shape {
        }
        shape {
        }
      }
    }
  }
}
node {
  name: "icdar2017_data_provider/case/cond/is_jpeg/Equal/y"
  op: "Const"
  input: "^icdar2017_data_provider/case/Assert/AssertGuard/Merge"
  input: "^icdar2017_data_provider/case/cond/switch_f"
  device: "/device:CPU:0"
  attr {
    key: "_output_shapes"
    value {
      list {
        shape {
        }
      }
    }
  }
  attr {
    key: "dtype"
    value {
      type: DT_STRING
    }
  }
  attr {
    key: "value"
    value {
      tensor {
        dtype: DT_STRING
        tensor_shape {
        }
        string_val: "\377\330\377"
      }
    }
  }
}
node {
  name: "icdar2017_data_provider/case/cond/is_jpeg/Equal"
  op: "Equal"
  input: "icdar2017_data_provider/case/cond/is_jpeg/Substr"
  input: "icdar2017_data_provider/case/cond/is_jpeg/Equal/y"
  device: "/device:CPU:0"
  attr {
    key: "T"
    value {
      type: DT_STRING
    }
  }
  attr {
    key: "_output_shapes"
    value {
      list {
        shape {
        }
      }
    }
  }
}
node {
  name: "icdar2017_data_provider/case/cond/cond_jpeg/Switch"
  op: "Switch"
  input: "icdar2017_data_provider/case/cond/is_jpeg/Equal"
  input: "icdar2017_data_provider/case/cond/is_jpeg/Equal"
  device: "/device:CPU:0"
  attr {
    key: "T"
    value {
      type: DT_BOOL
    }
  }
  attr {
    key: "_output_shapes"
    value {
      list {
        shape {
        }
        shape {
        }
      }
    }
  }
}
node {
  name: "icdar2017_data_provider/case/cond/cond_jpeg/switch_t"
  op: "Identity"
  input: "icdar2017_data_provider/case/cond/cond_jpeg/Switch:1"
  device: "/device:CPU:0"
  attr {
    key: "T"
    value {
      type: DT_BOOL
    }
  }
  attr {
    key: "_output_shapes"
    value {
      list {
        shape {
        }
      }
    }
  }
}
node {
  name: "icdar2017_data_provider/case/cond/cond_jpeg/switch_f"
  op: "Identity"
  input: "icdar2017_data_provider/case/cond/cond_jpeg/Switch"
  device: "/device:CPU:0"
  attr {
    key: "T"
    value {
      type: DT_BOOL
    }
  }
  attr {
    key: "_output_shapes"
    value {
      list {
        shape {
        }
      }
    }
  }
}
node {
  name: "icdar2017_data_provider/case/cond/cond_jpeg/pred_id"
  op: "Identity"
  input: "icdar2017_data_provider/case/cond/is_jpeg/Equal"
  device: "/device:CPU:0"
  attr {
    key: "T"
    value {
      type: DT_BOOL
    }
  }
  attr {
    key: "_output_shapes"
    value {
      list {
        shape {
        }
      }
    }
  }
}
node {
  name: "icdar2017_data_provider/case/cond/cond_jpeg/DecodeJpeg"
  op: "DecodeJpeg"
  input: "icdar2017_data_provider/case/cond/cond_jpeg/DecodeJpeg/Switch:1"
  input: "^icdar2017_data_provider/case/Assert/AssertGuard/Merge"
  device: "/device:CPU:0"
  attr {
    key: "_output_shapes"
    value {
      list {
        shape {
          dim {
            size: -1
          }
          dim {
            size: -1
          }
          dim {
            size: 3
          }
        }
      }
    }
  }
  attr {
    key: "acceptable_fraction"
    value {
      f: 1.0
    }
  }
  attr {
    key: "channels"
    value {
      i: 3
    }
  }
  attr {
    key: "dct_method"
    value {
      s: ""
    }
  }
  attr {
    key: "fancy_upscaling"
    value {
      b: true
    }
  }
  attr {
    key: "ratio"
    value {
      i: 1
    }
  }
  attr {
    key: "try_recover_truncated"
    value {
      b: false
    }
  }
}
node {
  name: "icdar2017_data_provider/case/cond/cond_jpeg/DecodeJpeg/Switch"
  op: "Switch"
  input: "icdar2017_data_provider/case/cond/is_jpeg/Substr/Switch"
  input: "icdar2017_data_provider/case/cond/cond_jpeg/pred_id"
  device: "/device:CPU:0"
  attr {
    key: "T"
    value {
      type: DT_STRING
    }
  }
  attr {
    key: "_class"
    value {
      list {
        s: "loc:@icdar2017_data_provider/Reshape"
      }
    }
  }
  attr {
    key: "_output_shapes"
    value {
      list {
        shape {
        }
        shape {
        }
      }
    }
  }
}
node {
  name: "icdar2017_data_provider/case/cond/cond_jpeg/decode_image/Substr/pos"
  op: "Const"
  input: "^icdar2017_data_provider/case/Assert/AssertGuard/Merge"
  input: "^icdar2017_data_provider/case/cond/cond_jpeg/switch_f"
  device: "/device:CPU:0"
  attr {
    key: "_output_shapes"
    value {
      list {
        shape {
        }
      }
    }
  }
  attr {
    key: "dtype"
    value {
      type: DT_INT32
    }
  }
  attr {
    key: "value"
    value {
      tensor {
        dtype: DT_INT32
        tensor_shape {
        }
        int_val: 0
      }
    }
  }
}
node {
  name: "icdar2017_data_provider/case/cond/cond_jpeg/decode_image/Substr/len"
  op: "Const"
  input: "^icdar2017_data_provider/case/Assert/AssertGuard/Merge"
  input: "^icdar2017_data_provider/case/cond/cond_jpeg/switch_f"
  device: "/device:CPU:0"
  attr {
    key: "_output_shapes"
    value {
      list {
        shape {
        }
      }
    }
  }
  attr {
    key: "dtype"
    value {
      type: DT_INT32
    }
  }
  attr {
    key: "value"
    value {
      tensor {
        dtype: DT_INT32
        tensor_shape {
        }
        int_val: 3
      }
    }
  }
}
node {
  name: "icdar2017_data_provider/case/cond/cond_jpeg/decode_image/Substr"
  op: "Substr"
  input: "icdar2017_data_provider/case/cond/cond_jpeg/decode_image/Substr/Switch"
  input: "icdar2017_data_provider/case/cond/cond_jpeg/decode_image/Substr/pos"
  input: "icdar2017_data_provider/case/cond/cond_jpeg/decode_image/Substr/len"
  device: "/device:CPU:0"
  attr {
    key: "T"
    value {
      type: DT_INT32
    }
  }
  attr {
    key: "_output_shapes"
    value {
      list {
        shape {
        }
      }
    }
  }
  attr {
    key: "unit"
    value {
      s: "BYTE"
    }
  }
}
node {
  name: "icdar2017_data_provider/case/cond/cond_jpeg/decode_image/Substr/Switch"
  op: "Switch"
  input: "icdar2017_data_provider/case/cond/is_jpeg/Substr/Switch"
  input: "icdar2017_data_provider/case/cond/cond_jpeg/pred_id"
  device: "/device:CPU:0"
  attr {
    key: "T"
    value {
      type: DT_STRING
    }
  }
  attr {
    key: "_class"
    value {
      list {
        s: "loc:@icdar2017_data_provider/Reshape"
      }
    }
  }
  attr {
    key: "_output_shapes"
    value {
      list {
        shape {
        }
        shape {
        }
      }
    }
  }
}
node {
  name: "icdar2017_data_provider/case/cond/cond_jpeg/decode_image/is_jpeg/Substr/pos"
  op: "Const"
  input: "^icdar2017_data_provider/case/Assert/AssertGuard/Merge"
  input: "^icdar2017_data_provider/case/cond/cond_jpeg/switch_f"
  device: "/device:CPU:0"
  attr {
    key: "_output_shapes"
    value {
      list {
        shape {
        }
      }
    }
  }
  attr {
    key: "dtype"
    value {
      type: DT_INT32
    }
  }
  attr {
    key: "value"
    value {
      tensor {
        dtype: DT_INT32
        tensor_shape {
        }
        int_val: 0
      }
    }
  }
}
node {
  name: "icdar2017_data_provider/case/cond/cond_jpeg/decode_image/is_jpeg/Substr/len"
  op: "Const"
  input: "^icdar2017_data_provider/case/Assert/AssertGuard/Merge"
  input: "^icdar2017_data_provider/case/cond/cond_jpeg/switch_f"
  device: "/device:CPU:0"
  attr {
    key: "_output_shapes"
    value {
      list {
        shape {
        }
      }
    }
  }
  attr {
    key: "dtype"
    value {
      type: DT_INT32
    }
  }
  attr {
    key: "value"
    value {
      tensor {
        dtype: DT_INT32
        tensor_shape {
        }
        int_val: 3
      }
    }
  }
}
node {
  name: "icdar2017_data_provider/case/cond/cond_jpeg/decode_image/is_jpeg/Substr"
  op: "Substr"
  input: "icdar2017_data_provider/case/cond/cond_jpeg/decode_image/Substr/Switch"
  input: "icdar2017_data_provider/case/cond/cond_jpeg/decode_image/is_jpeg/Substr/pos"
  input: "icdar2017_data_provider/case/cond/cond_jpeg/decode_image/is_jpeg/Substr/len"
  device: "/device:CPU:0"
  attr {
    key: "T"
    value {
      type: DT_INT32
    }
  }
  attr {
    key: "_output_shapes"
    value {
      list {
        shape {
        }
      }
    }
  }
  attr {
    key: "unit"
    value {
      s: "BYTE"
    }
  }
}
node {
  name: "icdar2017_data_provider/case/cond/cond_jpeg/decode_image/is_jpeg/Equal/y"
  op: "Const"
  input: "^icdar2017_data_provider/case/Assert/AssertGuard/Merge"
  input: "^icdar2017_data_provider/case/cond/cond_jpeg/switch_f"
  device: "/device:CPU:0"
  attr {
    key: "_output_shapes"
    value {
      list {
        shape {
        }
      }
    }
  }
  attr {
    key: "dtype"
    value {
      type: DT_STRING
    }
  }
  attr {
    key: "value"
    value {
      tensor {
        dtype: DT_STRING
        tensor_shape {
        }
        string_val: "\377\330\377"
      }
    }
  }
}
node {
  name: "icdar2017_data_provider/case/cond/cond_jpeg/decode_image/is_jpeg/Equal"
  op: "Equal"
  input: "icdar2017_data_provider/case/cond/cond_jpeg/decode_image/is_jpeg/Substr"
  input: "icdar2017_data_provider/case/cond/cond_jpeg/decode_image/is_jpeg/Equal/y"
  device: "/device:CPU:0"
  attr {
    key: "T"
    value {
      type: DT_STRING
    }
  }
  attr {
    key: "_output_shapes"
    value {
      list {
        shape {
        }
      }
    }
  }
}
node {
  name: "icdar2017_data_provider/case/cond/cond_jpeg/decode_image/cond_jpeg/Switch"
  op: "Switch"
  input: "icdar2017_data_provider/case/cond/cond_jpeg/decode_image/is_jpeg/Equal"
  input: "icdar2017_data_provider/case/cond/cond_jpeg/decode_image/is_jpeg/Equal"
  device: "/device:CPU:0"
  attr {
    key: "T"
    value {
      type: DT_BOOL
    }
  }
  attr {
    key: "_output_shapes"
    value {
      list {
        shape {
        }
        shape {
        }
      }
    }
  }
}
node {
  name: "icdar2017_data_provider/case/cond/cond_jpeg/decode_image/cond_jpeg/switch_t"
  op: "Identity"
  input: "icdar2017_data_provider/case/cond/cond_jpeg/decode_image/cond_jpeg/Switch:1"
  device: "/device:CPU:0"
  attr {
    key: "T"
    value {
      type: DT_BOOL
    }
  }
  attr {
    key: "_output_shapes"
    value {
      list {
        shape {
        }
      }
    }
  }
}
node {
  name: "icdar2017_data_provider/case/cond/cond_jpeg/decode_image/cond_jpeg/switch_f"
  op: "Identity"
  input: "icdar2017_data_provider/case/cond/cond_jpeg/decode_image/cond_jpeg/Switch"
  device: "/device:CPU:0"
  attr {
    key: "T"
    value {
      type: DT_BOOL
    }
  }
  attr {
    key: "_output_shapes"
    value {
      list {
        shape {
        }
      }
    }
  }
}
node {
  name: "icdar2017_data_provider/case/cond/cond_jpeg/decode_image/cond_jpeg/pred_id"
  op: "Identity"
  input: "icdar2017_data_provider/case/cond/cond_jpeg/decode_image/is_jpeg/Equal"
  device: "/device:CPU:0"
  attr {
    key: "T"
    value {
      type: DT_BOOL
    }
  }
  attr {
    key: "_output_shapes"
    value {
      list {
        shape {
        }
      }
    }
  }
}
node {
  name: "icdar2017_data_provider/case/cond/cond_jpeg/decode_image/cond_jpeg/check_jpeg_channels/x"
  op: "Const"
  input: "^icdar2017_data_provider/case/Assert/AssertGuard/Merge"
  input: "^icdar2017_data_provider/case/cond/cond_jpeg/decode_image/cond_jpeg/switch_t"
  device: "/device:CPU:0"
  attr {
    key: "_output_shapes"
    value {
      list {
        shape {
        }
      }
    }
  }
  attr {
    key: "dtype"
    value {
      type: DT_INT32
    }
  }
  attr {
    key: "value"
    value {
      tensor {
        dtype: DT_INT32
        tensor_shape {
        }
        int_val: 3
      }
    }
  }
}
node {
  name: "icdar2017_data_provider/case/cond/cond_jpeg/decode_image/cond_jpeg/check_jpeg_channels/y"
  op: "Const"
  input: "^icdar2017_data_provider/case/Assert/AssertGuard/Merge"
  input: "^icdar2017_data_provider/case/cond/cond_jpeg/decode_image/cond_jpeg/switch_t"
  device: "/device:CPU:0"
  attr {
    key: "_output_shapes"
    value {
      list {
        shape {
        }
      }
    }
  }
  attr {
    key: "dtype"
    value {
      type: DT_INT32
    }
  }
  attr {
    key: "value"
    value {
      tensor {
        dtype: DT_INT32
        tensor_shape {
        }
        int_val: 4
      }
    }
  }
}
node {
  name: "icdar2017_data_provider/case/cond/cond_jpeg/decode_image/cond_jpeg/check_jpeg_channels"
  op: "NotEqual"
  input: "icdar2017_data_provider/case/cond/cond_jpeg/decode_image/cond_jpeg/check_jpeg_channels/x"
  input: "icdar2017_data_provider/case/cond/cond_jpeg/decode_image/cond_jpeg/check_jpeg_channels/y"
  device: "/device:CPU:0"
  attr {
    key: "T"
    value {
      type: DT_INT32
    }
  }
  attr {
    key: "_output_shapes"
    value {
      list {
        shape {
        }
      }
    }
  }
}
node {
  name: "icdar2017_data_provider/case/cond/cond_jpeg/decode_image/cond_jpeg/Assert/Const"
  op: "Const"
  input: "^icdar2017_data_provider/case/Assert/AssertGuard/Merge"
  input: "^icdar2017_data_provider/case/cond/cond_jpeg/decode_image/cond_jpeg/switch_t"
  device: "/device:CPU:0"
  attr {
    key: "_output_shapes"
    value {
      list {
        shape {
        }
      }
    }
  }
  attr {
    key: "dtype"
    value {
      type: DT_STRING
    }
  }
  attr {
    key: "value"
    value {
      tensor {
        dtype: DT_STRING
        tensor_shape {
        }
        string_val: "Channels must be in (None, 0, 1, 3) when decoding JPEG images"
      }
    }
  }
}
node {
  name: "icdar2017_data_provider/case/cond/cond_jpeg/decode_image/cond_jpeg/Assert/Assert/data_0"
  op: "Const"
  input: "^icdar2017_data_provider/case/Assert/AssertGuard/Merge"
  input: "^icdar2017_data_provider/case/cond/cond_jpeg/decode_image/cond_jpeg/switch_t"
  device: "/device:CPU:0"
  attr {
    key: "_output_shapes"
    value {
      list {
        shape {
        }
      }
    }
  }
  attr {
    key: "dtype"
    value {
      type: DT_STRING
    }
  }
  attr {
    key: "value"
    value {
      tensor {
        dtype: DT_STRING
        tensor_shape {
        }
        string_val: "Channels must be in (None, 0, 1, 3) when decoding JPEG images"
      }
    }
  }
}
node {
  name: "icdar2017_data_provider/case/cond/cond_jpeg/decode_image/cond_jpeg/Assert/Assert"
  op: "Assert"
  input: "icdar2017_data_provider/case/cond/cond_jpeg/decode_image/cond_jpeg/check_jpeg_channels"
  input: "icdar2017_data_provider/case/cond/cond_jpeg/decode_image/cond_jpeg/Assert/Assert/data_0"
  device: "/device:CPU:0"
  attr {
    key: "T"
    value {
      list {
        type: DT_STRING
      }
    }
  }
  attr {
    key: "summarize"
    value {
      i: 3
    }
  }
}
node {
  name: "icdar2017_data_provider/case/cond/cond_jpeg/decode_image/cond_jpeg/DecodeJpeg"
  op: "DecodeJpeg"
  input: "icdar2017_data_provider/case/cond/cond_jpeg/decode_image/cond_jpeg/DecodeJpeg/Switch:1"
  input: "^icdar2017_data_provider/case/Assert/AssertGuard/Merge"
  input: "^icdar2017_data_provider/case/cond/cond_jpeg/decode_image/cond_jpeg/Assert/Assert"
  device: "/device:CPU:0"
  attr {
    key: "_output_shapes"
    value {
      list {
        shape {
          dim {
            size: -1
          }
          dim {
            size: -1
          }
          dim {
            size: 3
          }
        }
      }
    }
  }
  attr {
    key: "acceptable_fraction"
    value {
      f: 1.0
    }
  }
  attr {
    key: "channels"
    value {
      i: 3
    }
  }
  attr {
    key: "dct_method"
    value {
      s: ""
    }
  }
  attr {
    key: "fancy_upscaling"
    value {
      b: true
    }
  }
  attr {
    key: "ratio"
    value {
      i: 1
    }
  }
  attr {
    key: "try_recover_truncated"
    value {
      b: false
    }
  }
}
node {
  name: "icdar2017_data_provider/case/cond/cond_jpeg/decode_image/cond_jpeg/DecodeJpeg/Switch"
  op: "Switch"
  input: "icdar2017_data_provider/case/cond/cond_jpeg/decode_image/Substr/Switch"
  input: "icdar2017_data_provider/case/cond/cond_jpeg/decode_image/cond_jpeg/pred_id"
  device: "/device:CPU:0"
  attr {
    key: "T"
    value {
      type: DT_STRING
    }
  }
  attr {
    key: "_class"
    value {
      list {
        s: "loc:@icdar2017_data_provider/Reshape"
      }
    }
  }
  attr {
    key: "_output_shapes"
    value {
      list {
        shape {
        }
        shape {
        }
      }
    }
  }
}
node {
  name: "icdar2017_data_provider/case/cond/cond_jpeg/decode_image/cond_jpeg/Identity"
  op: "Identity"
  input: "icdar2017_data_provider/case/cond/cond_jpeg/decode_image/cond_jpeg/DecodeJpeg"
  device: "/device:CPU:0"
  attr {
    key: "T"
    value {
      type: DT_UINT8
    }
  }
  attr {
    key: "_output_shapes"
    value {
      list {
        shape {
          dim {
            size: -1
          }
          dim {
            size: -1
          }
          dim {
            size: 3
          }
        }
      }
    }
  }
}
node {
  name: "icdar2017_data_provider/case/cond/cond_jpeg/decode_image/cond_jpeg/is_png/Substr/pos"
  op: "Const"
  input: "^icdar2017_data_provider/case/Assert/AssertGuard/Merge"
  input: "^icdar2017_data_provider/case/cond/cond_jpeg/decode_image/cond_jpeg/switch_f"
  device: "/device:CPU:0"
  attr {
    key: "_output_shapes"
    value {
      list {
        shape {
        }
      }
    }
  }
  attr {
    key: "dtype"
    value {
      type: DT_INT32
    }
  }
  attr {
    key: "value"
    value {
      tensor {
        dtype: DT_INT32
        tensor_shape {
        }
        int_val: 0
      }
    }
  }
}
node {
  name: "icdar2017_data_provider/case/cond/cond_jpeg/decode_image/cond_jpeg/is_png/Substr/len"
  op: "Const"
  input: "^icdar2017_data_provider/case/Assert/AssertGuard/Merge"
  input: "^icdar2017_data_provider/case/cond/cond_jpeg/decode_image/cond_jpeg/switch_f"
  device: "/device:CPU:0"
  attr {
    key: "_output_shapes"
    value {
      list {
        shape {
        }
      }
    }
  }
  attr {
    key: "dtype"
    value {
      type: DT_INT32
    }
  }
  attr {
    key: "value"
    value {
      tensor {
        dtype: DT_INT32
        tensor_shape {
        }
        int_val: 3
      }
    }
  }
}
node {
  name: "icdar2017_data_provider/case/cond/cond_jpeg/decode_image/cond_jpeg/is_png/Substr"
  op: "Substr"
  input: "icdar2017_data_provider/case/cond/cond_jpeg/decode_image/cond_jpeg/is_png/Substr/Switch"
  input: "icdar2017_data_provider/case/cond/cond_jpeg/decode_image/cond_jpeg/is_png/Substr/pos"
  input: "icdar2017_data_provider/case/cond/cond_jpeg/decode_image/cond_jpeg/is_png/Substr/len"
  device: "/device:CPU:0"
  attr {
    key: "T"
    value {
      type: DT_INT32
    }
  }
  attr {
    key: "_output_shapes"
    value {
      list {
        shape {
        }
      }
    }
  }
  attr {
    key: "unit"
    value {
      s: "BYTE"
    }
  }
}
node {
  name: "icdar2017_data_provider/case/cond/cond_jpeg/decode_image/cond_jpeg/is_png/Substr/Switch"
  op: "Switch"
  input: "icdar2017_data_provider/case/cond/cond_jpeg/decode_image/Substr/Switch"
  input: "icdar2017_data_provider/case/cond/cond_jpeg/decode_image/cond_jpeg/pred_id"
  device: "/device:CPU:0"
  attr {
    key: "T"
    value {
      type: DT_STRING
    }
  }
  attr {
    key: "_class"
    value {
      list {
        s: "loc:@icdar2017_data_provider/Reshape"
      }
    }
  }
  attr {
    key: "_output_shapes"
    value {
      list {
        shape {
        }
        shape {
        }
      }
    }
  }
}
node {
  name: "icdar2017_data_provider/case/cond/cond_jpeg/decode_image/cond_jpeg/is_png/Equal/y"
  op: "Const"
  input: "^icdar2017_data_provider/case/Assert/AssertGuard/Merge"
  input: "^icdar2017_data_provider/case/cond/cond_jpeg/decode_image/cond_jpeg/switch_f"
  device: "/device:CPU:0"
  attr {
    key: "_output_shapes"
    value {
      list {
        shape {
        }
      }
    }
  }
  attr {
    key: "dtype"
    value {
      type: DT_STRING
    }
  }
  attr {
    key: "value"
    value {
      tensor {
        dtype: DT_STRING
        tensor_shape {
        }
        string_val: "\211PN"
      }
    }
  }
}
node {
  name: "icdar2017_data_provider/case/cond/cond_jpeg/decode_image/cond_jpeg/is_png/Equal"
  op: "Equal"
  input: "icdar2017_data_provider/case/cond/cond_jpeg/decode_image/cond_jpeg/is_png/Substr"
  input: "icdar2017_data_provider/case/cond/cond_jpeg/decode_image/cond_jpeg/is_png/Equal/y"
  device: "/device:CPU:0"
  attr {
    key: "T"
    value {
      type: DT_STRING
    }
  }
  attr {
    key: "_output_shapes"
    value {
      list {
        shape {
        }
      }
    }
  }
}
node {
  name: "icdar2017_data_provider/case/cond/cond_jpeg/decode_image/cond_jpeg/cond_png/Switch"
  op: "Switch"
  input: "icdar2017_data_provider/case/cond/cond_jpeg/decode_image/cond_jpeg/is_png/Equal"
  input: "icdar2017_data_provider/case/cond/cond_jpeg/decode_image/cond_jpeg/is_png/Equal"
  device: "/device:CPU:0"
  attr {
    key: "T"
    value {
      type: DT_BOOL
    }
  }
  attr {
    key: "_output_shapes"
    value {
      list {
        shape {
        }
        shape {
        }
      }
    }
  }
}
node {
  name: "icdar2017_data_provider/case/cond/cond_jpeg/decode_image/cond_jpeg/cond_png/switch_t"
  op: "Identity"
  input: "icdar2017_data_provider/case/cond/cond_jpeg/decode_image/cond_jpeg/cond_png/Switch:1"
  device: "/device:CPU:0"
  attr {
    key: "T"
    value {
      type: DT_BOOL
    }
  }
  attr {
    key: "_output_shapes"
    value {
      list {
        shape {
        }
      }
    }
  }
}
node {
  name: "icdar2017_data_provider/case/cond/cond_jpeg/decode_image/cond_jpeg/cond_png/switch_f"
  op: "Identity"
  input: "icdar2017_data_provider/case/cond/cond_jpeg/decode_image/cond_jpeg/cond_png/Switch"
  device: "/device:CPU:0"
  attr {
    key: "T"
    value {
      type: DT_BOOL
    }
  }
  attr {
    key: "_output_shapes"
    value {
      list {
        shape {
        }
      }
    }
  }
}
node {
  name: "icdar2017_data_provider/case/cond/cond_jpeg/decode_image/cond_jpeg/cond_png/pred_id"
  op: "Identity"
  input: "icdar2017_data_provider/case/cond/cond_jpeg/decode_image/cond_jpeg/is_png/Equal"
  device: "/device:CPU:0"
  attr {
    key: "T"
    value {
      type: DT_BOOL
    }
  }
  attr {
    key: "_output_shapes"
    value {
      list {
        shape {
        }
      }
    }
  }
}
node {
  name: "icdar2017_data_provider/case/cond/cond_jpeg/decode_image/cond_jpeg/cond_png/DecodePng"
  op: "DecodePng"
  input: "icdar2017_data_provider/case/cond/cond_jpeg/decode_image/cond_jpeg/cond_png/DecodePng/Switch:1"
  input: "^icdar2017_data_provider/case/Assert/AssertGuard/Merge"
  device: "/device:CPU:0"
  attr {
    key: "_output_shapes"
    value {
      list {
        shape {
          dim {
            size: -1
          }
          dim {
            size: -1
          }
          dim {
            size: 3
          }
        }
      }
    }
  }
  attr {
    key: "channels"
    value {
      i: 3
    }
  }
  attr {
    key: "dtype"
    value {
      type: DT_UINT8
    }
  }
}
node {
  name: "icdar2017_data_provider/case/cond/cond_jpeg/decode_image/cond_jpeg/cond_png/DecodePng/Switch"
  op: "Switch"
  input: "icdar2017_data_provider/case/cond/cond_jpeg/decode_image/cond_jpeg/is_png/Substr/Switch"
  input: "icdar2017_data_provider/case/cond/cond_jpeg/decode_image/cond_jpeg/cond_png/pred_id"
  device: "/device:CPU:0"
  attr {
    key: "T"
    value {
      type: DT_STRING
    }
  }
  attr {
    key: "_class"
    value {
      list {
        s: "loc:@icdar2017_data_provider/Reshape"
      }
    }
  }
  attr {
    key: "_output_shapes"
    value {
      list {
        shape {
        }
        shape {
        }
      }
    }
  }
}
node {
  name: "icdar2017_data_provider/case/cond/cond_jpeg/decode_image/cond_jpeg/cond_png/Identity"
  op: "Identity"
  input: "icdar2017_data_provider/case/cond/cond_jpeg/decode_image/cond_jpeg/cond_png/DecodePng"
  device: "/device:CPU:0"
  attr {
    key: "T"
    value {
      type: DT_UINT8
    }
  }
  attr {
    key: "_output_shapes"
    value {
      list {
        shape {
          dim {
            size: -1
          }
          dim {
            size: -1
          }
          dim {
            size: 3
          }
        }
      }
    }
  }
}
node {
  name: "icdar2017_data_provider/case/cond/cond_jpeg/decode_image/cond_jpeg/cond_png/is_gif/y"
  op: "Const"
  input: "^icdar2017_data_provider/case/Assert/AssertGuard/Merge"
  input: "^icdar2017_data_provider/case/cond/cond_jpeg/decode_image/cond_jpeg/cond_png/switch_f"
  device: "/device:CPU:0"
  attr {
    key: "_output_shapes"
    value {
      list {
        shape {
        }
      }
    }
  }
  attr {
    key: "dtype"
    value {
      type: DT_STRING
    }
  }
  attr {
    key: "value"
    value {
      tensor {
        dtype: DT_STRING
        tensor_shape {
        }
        string_val: "GIF"
      }
    }
  }
}
node {
  name: "icdar2017_data_provider/case/cond/cond_jpeg/decode_image/cond_jpeg/cond_png/is_gif"
  op: "Equal"
  input: "icdar2017_data_provider/case/cond/cond_jpeg/decode_image/cond_jpeg/cond_png/is_gif/Switch_1"
  input: "icdar2017_data_provider/case/cond/cond_jpeg/decode_image/cond_jpeg/cond_png/is_gif/y"
  device: "/device:CPU:0"
  attr {
    key: "T"
    value {
      type: DT_STRING
    }
  }
  attr {
    key: "_output_shapes"
    value {
      list {
        shape {
        }
      }
    }
  }
}
node {
  name: "icdar2017_data_provider/case/cond/cond_jpeg/decode_image/cond_jpeg/cond_png/is_gif/Switch"
  op: "Switch"
  input: "icdar2017_data_provider/case/cond/cond_jpeg/decode_image/Substr"
  input: "icdar2017_data_provider/case/cond/cond_jpeg/decode_image/cond_jpeg/pred_id"
  device: "/device:CPU:0"
  attr {
    key: "T"
    value {
      type: DT_STRING
    }
  }
  attr {
    key: "_class"
    value {
      list {
        s: "loc:@icdar2017_data_provider/case/cond/cond_jpeg/decode_image/Substr"
      }
    }
  }
  attr {
    key: "_output_shapes"
    value {
      list {
        shape {
        }
        shape {
        }
      }
    }
  }
}
node {
  name: "icdar2017_data_provider/case/cond/cond_jpeg/decode_image/cond_jpeg/cond_png/is_gif/Switch_1"
  op: "Switch"
  input: "icdar2017_data_provider/case/cond/cond_jpeg/decode_image/cond_jpeg/cond_png/is_gif/Switch"
  input: "icdar2017_data_provider/case/cond/cond_jpeg/decode_image/cond_jpeg/cond_png/pred_id"
  device: "/device:CPU:0"
  attr {
    key: "T"
    value {
      type: DT_STRING
    }
  }
  attr {
    key: "_class"
    value {
      list {
        s: "loc:@icdar2017_data_provider/case/cond/cond_jpeg/decode_image/Substr"
      }
    }
  }
  attr {
    key: "_output_shapes"
    value {
      list {
        shape {
        }
        shape {
        }
      }
    }
  }
}
node {
  name: "icdar2017_data_provider/case/cond/cond_jpeg/decode_image/cond_jpeg/cond_png/cond_gif/Switch"
  op: "Switch"
  input: "icdar2017_data_provider/case/cond/cond_jpeg/decode_image/cond_jpeg/cond_png/is_gif"
  input: "icdar2017_data_provider/case/cond/cond_jpeg/decode_image/cond_jpeg/cond_png/is_gif"
  device: "/device:CPU:0"
  attr {
    key: "T"
    value {
      type: DT_BOOL
    }
  }
  attr {
    key: "_output_shapes"
    value {
      list {
        shape {
        }
        shape {
        }
      }
    }
  }
}
node {
  name: "icdar2017_data_provider/case/cond/cond_jpeg/decode_image/cond_jpeg/cond_png/cond_gif/switch_t"
  op: "Identity"
  input: "icdar2017_data_provider/case/cond/cond_jpeg/decode_image/cond_jpeg/cond_png/cond_gif/Switch:1"
  device: "/device:CPU:0"
  attr {
    key: "T"
    value {
      type: DT_BOOL
    }
  }
  attr {
    key: "_output_shapes"
    value {
      list {
        shape {
        }
      }
    }
  }
}
node {
  name: "icdar2017_data_provider/case/cond/cond_jpeg/decode_image/cond_jpeg/cond_png/cond_gif/switch_f"
  op: "Identity"
  input: "icdar2017_data_provider/case/cond/cond_jpeg/decode_image/cond_jpeg/cond_png/cond_gif/Switch"
  device: "/device:CPU:0"
  attr {
    key: "T"
    value {
      type: DT_BOOL
    }
  }
  attr {
    key: "_output_shapes"
    value {
      list {
        shape {
        }
      }
    }
  }
}
node {
  name: "icdar2017_data_provider/case/cond/cond_jpeg/decode_image/cond_jpeg/cond_png/cond_gif/pred_id"
  op: "Identity"
  input: "icdar2017_data_provider/case/cond/cond_jpeg/decode_image/cond_jpeg/cond_png/is_gif"
  device: "/device:CPU:0"
  attr {
    key: "T"
    value {
      type: DT_BOOL
    }
  }
  attr {
    key: "_output_shapes"
    value {
      list {
        shape {
        }
      }
    }
  }
}
node {
  name: "icdar2017_data_provider/case/cond/cond_jpeg/decode_image/cond_jpeg/cond_png/cond_gif/check_gif_channels/x"
  op: "Const"
  input: "^icdar2017_data_provider/case/Assert/AssertGuard/Merge"
  input: "^icdar2017_data_provider/case/cond/cond_jpeg/decode_image/cond_jpeg/cond_png/cond_gif/switch_t"
  device: "/device:CPU:0"
  attr {
    key: "_output_shapes"
    value {
      list {
        shape {
        }
      }
    }
  }
  attr {
    key: "dtype"
    value {
      type: DT_INT32
    }
  }
  attr {
    key: "value"
    value {
      tensor {
        dtype: DT_INT32
        tensor_shape {
        }
        int_val: 3
      }
    }
  }
}
node {
  name: "icdar2017_data_provider/case/cond/cond_jpeg/decode_image/cond_jpeg/cond_png/cond_gif/check_gif_channels/y"
  op: "Const"
  input: "^icdar2017_data_provider/case/Assert/AssertGuard/Merge"
  input: "^icdar2017_data_provider/case/cond/cond_jpeg/decode_image/cond_jpeg/cond_png/cond_gif/switch_t"
  device: "/device:CPU:0"
  attr {
    key: "_output_shapes"
    value {
      list {
        shape {
        }
      }
    }
  }
  attr {
    key: "dtype"
    value {
      type: DT_INT32
    }
  }
  attr {
    key: "value"
    value {
      tensor {
        dtype: DT_INT32
        tensor_shape {
        }
        int_val: 1
      }
    }
  }
}
node {
  name: "icdar2017_data_provider/case/cond/cond_jpeg/decode_image/cond_jpeg/cond_png/cond_gif/check_gif_channels"
  op: "NotEqual"
  input: "icdar2017_data_provider/case/cond/cond_jpeg/decode_image/cond_jpeg/cond_png/cond_gif/check_gif_channels/x"
  input: "icdar2017_data_provider/case/cond/cond_jpeg/decode_image/cond_jpeg/cond_png/cond_gif/check_gif_channels/y"
  device: "/device:CPU:0"
  attr {
    key: "T"
    value {
      type: DT_INT32
    }
  }
  attr {
    key: "_output_shapes"
    value {
      list {
        shape {
        }
      }
    }
  }
}
node {
  name: "icdar2017_data_provider/case/cond/cond_jpeg/decode_image/cond_jpeg/cond_png/cond_gif/check_gif_channels_1/x"
  op: "Const"
  input: "^icdar2017_data_provider/case/Assert/AssertGuard/Merge"
  input: "^icdar2017_data_provider/case/cond/cond_jpeg/decode_image/cond_jpeg/cond_png/cond_gif/switch_t"
  device: "/device:CPU:0"
  attr {
    key: "_output_shapes"
    value {
      list {
        shape {
        }
      }
    }
  }
  attr {
    key: "dtype"
    value {
      type: DT_INT32
    }
  }
  attr {
    key: "value"
    value {
      tensor {
        dtype: DT_INT32
        tensor_shape {
        }
        int_val: 3
      }
    }
  }
}
node {
  name: "icdar2017_data_provider/case/cond/cond_jpeg/decode_image/cond_jpeg/cond_png/cond_gif/check_gif_channels_1/y"
  op: "Const"
  input: "^icdar2017_data_provider/case/Assert/AssertGuard/Merge"
  input: "^icdar2017_data_provider/case/cond/cond_jpeg/decode_image/cond_jpeg/cond_png/cond_gif/switch_t"
  device: "/device:CPU:0"
  attr {
    key: "_output_shapes"
    value {
      list {
        shape {
        }
      }
    }
  }
  attr {
    key: "dtype"
    value {
      type: DT_INT32
    }
  }
  attr {
    key: "value"
    value {
      tensor {
        dtype: DT_INT32
        tensor_shape {
        }
        int_val: 4
      }
    }
  }
}
node {
  name: "icdar2017_data_provider/case/cond/cond_jpeg/decode_image/cond_jpeg/cond_png/cond_gif/check_gif_channels_1"
  op: "NotEqual"
  input: "icdar2017_data_provider/case/cond/cond_jpeg/decode_image/cond_jpeg/cond_png/cond_gif/check_gif_channels_1/x"
  input: "icdar2017_data_provider/case/cond/cond_jpeg/decode_image/cond_jpeg/cond_png/cond_gif/check_gif_channels_1/y"
  device: "/device:CPU:0"
  attr {
    key: "T"
    value {
      type: DT_INT32
    }
  }
  attr {
    key: "_output_shapes"
    value {
      list {
        shape {
        }
      }
    }
  }
}
node {
  name: "icdar2017_data_provider/case/cond/cond_jpeg/decode_image/cond_jpeg/cond_png/cond_gif/LogicalAnd"
  op: "LogicalAnd"
  input: "icdar2017_data_provider/case/cond/cond_jpeg/decode_image/cond_jpeg/cond_png/cond_gif/check_gif_channels"
  input: "icdar2017_data_provider/case/cond/cond_jpeg/decode_image/cond_jpeg/cond_png/cond_gif/check_gif_channels_1"
  device: "/device:CPU:0"
  attr {
    key: "_output_shapes"
    value {
      list {
        shape {
        }
      }
    }
  }
}
node {
  name: "icdar2017_data_provider/case/cond/cond_jpeg/decode_image/cond_jpeg/cond_png/cond_gif/Assert/Const"
  op: "Const"
  input: "^icdar2017_data_provider/case/Assert/AssertGuard/Merge"
  input: "^icdar2017_data_provider/case/cond/cond_jpeg/decode_image/cond_jpeg/cond_png/cond_gif/switch_t"
  device: "/device:CPU:0"
  attr {
    key: "_output_shapes"
    value {
      list {
        shape {
        }
      }
    }
  }
  attr {
    key: "dtype"
    value {
      type: DT_STRING
    }
  }
  attr {
    key: "value"
    value {
      tensor {
        dtype: DT_STRING
        tensor_shape {
        }
        string_val: "Channels must be in (None, 0, 3) when decoding GIF images"
      }
    }
  }
}
node {
  name: "icdar2017_data_provider/case/cond/cond_jpeg/decode_image/cond_jpeg/cond_png/cond_gif/Assert/Assert/data_0"
  op: "Const"
  input: "^icdar2017_data_provider/case/Assert/AssertGuard/Merge"
  input: "^icdar2017_data_provider/case/cond/cond_jpeg/decode_image/cond_jpeg/cond_png/cond_gif/switch_t"
  device: "/device:CPU:0"
  attr {
    key: "_output_shapes"
    value {
      list {
        shape {
        }
      }
    }
  }
  attr {
    key: "dtype"
    value {
      type: DT_STRING
    }
  }
  attr {
    key: "value"
    value {
      tensor {
        dtype: DT_STRING
        tensor_shape {
        }
        string_val: "Channels must be in (None, 0, 3) when decoding GIF images"
      }
    }
  }
}
node {
  name: "icdar2017_data_provider/case/cond/cond_jpeg/decode_image/cond_jpeg/cond_png/cond_gif/Assert/Assert"
  op: "Assert"
  input: "icdar2017_data_provider/case/cond/cond_jpeg/decode_image/cond_jpeg/cond_png/cond_gif/LogicalAnd"
  input: "icdar2017_data_provider/case/cond/cond_jpeg/decode_image/cond_jpeg/cond_png/cond_gif/Assert/Assert/data_0"
  device: "/device:CPU:0"
  attr {
    key: "T"
    value {
      list {
        type: DT_STRING
      }
    }
  }
  attr {
    key: "summarize"
    value {
      i: 3
    }
  }
}
node {
  name: "icdar2017_data_provider/case/cond/cond_jpeg/decode_image/cond_jpeg/cond_png/cond_gif/DecodeGif"
  op: "DecodeGif"
  input: "icdar2017_data_provider/case/cond/cond_jpeg/decode_image/cond_jpeg/cond_png/cond_gif/DecodeGif/Switch_1:1"
  input: "^icdar2017_data_provider/case/Assert/AssertGuard/Merge"
  input: "^icdar2017_data_provider/case/cond/cond_jpeg/decode_image/cond_jpeg/cond_png/cond_gif/Assert/Assert"
  device: "/device:CPU:0"
  attr {
    key: "_output_shapes"
    value {
      list {
        shape {
          dim {
            size: -1
          }
          dim {
            size: -1
          }
          dim {
            size: -1
          }
          dim {
            size: 3
          }
        }
      }
    }
  }
}
node {
  name: "icdar2017_data_provider/case/cond/cond_jpeg/decode_image/cond_jpeg/cond_png/cond_gif/DecodeGif/Switch"
  op: "Switch"
  input: "icdar2017_data_provider/case/cond/cond_jpeg/decode_image/cond_jpeg/is_png/Substr/Switch"
  input: "icdar2017_data_provider/case/cond/cond_jpeg/decode_image/cond_jpeg/cond_png/pred_id"
  device: "/device:CPU:0"
  attr {
    key: "T"
    value {
      type: DT_STRING
    }
  }
  attr {
    key: "_class"
    value {
      list {
        s: "loc:@icdar2017_data_provider/Reshape"
      }
    }
  }
  attr {
    key: "_output_shapes"
    value {
      list {
        shape {
        }
        shape {
        }
      }
    }
  }
}
node {
  name: "icdar2017_data_provider/case/cond/cond_jpeg/decode_image/cond_jpeg/cond_png/cond_gif/DecodeGif/Switch_1"
  op: "Switch"
  input: "icdar2017_data_provider/case/cond/cond_jpeg/decode_image/cond_jpeg/cond_png/cond_gif/DecodeGif/Switch"
  input: "icdar2017_data_provider/case/cond/cond_jpeg/decode_image/cond_jpeg/cond_png/cond_gif/pred_id"
  device: "/device:CPU:0"
  attr {
    key: "T"
    value {
      type: DT_STRING
    }
  }
  attr {
    key: "_class"
    value {
      list {
        s: "loc:@icdar2017_data_provider/Reshape"
      }
    }
  }
  attr {
    key: "_output_shapes"
    value {
      list {
        shape {
        }
        shape {
        }
      }
    }
  }
}
node {
  name: "icdar2017_data_provider/case/cond/cond_jpeg/decode_image/cond_jpeg/cond_png/cond_gif/Identity"
  op: "Identity"
  input: "icdar2017_data_provider/case/cond/cond_jpeg/decode_image/cond_jpeg/cond_png/cond_gif/DecodeGif"
  device: "/device:CPU:0"
  attr {
    key: "T"
    value {
      type: DT_UINT8
    }
  }
  attr {
    key: "_output_shapes"
    value {
      list {
        shape {
          dim {
            size: -1
          }
          dim {
            size: -1
          }
          dim {
            size: -1
          }
          dim {
            size: 3
          }
        }
      }
    }
  }
}
node {
  name: "icdar2017_data_provider/case/cond/cond_jpeg/decode_image/cond_jpeg/cond_png/cond_gif/Substr/pos"
  op: "Const"
  input: "^icdar2017_data_provider/case/Assert/AssertGuard/Merge"
  input: "^icdar2017_data_provider/case/cond/cond_jpeg/decode_image/cond_jpeg/cond_png/cond_gif/switch_f"
  device: "/device:CPU:0"
  attr {
    key: "_output_shapes"
    value {
      list {
        shape {
        }
      }
    }
  }
  attr {
    key: "dtype"
    value {
      type: DT_INT32
    }
  }
  attr {
    key: "value"
    value {
      tensor {
        dtype: DT_INT32
        tensor_shape {
        }
        int_val: 0
      }
    }
  }
}
node {
  name: "icdar2017_data_provider/case/cond/cond_jpeg/decode_image/cond_jpeg/cond_png/cond_gif/Substr/len"
  op: "Const"
  input: "^icdar2017_data_provider/case/Assert/AssertGuard/Merge"
  input: "^icdar2017_data_provider/case/cond/cond_jpeg/decode_image/cond_jpeg/cond_png/cond_gif/switch_f"
  device: "/device:CPU:0"
  attr {
    key: "_output_shapes"
    value {
      list {
        shape {
        }
      }
    }
  }
  attr {
    key: "dtype"
    value {
      type: DT_INT32
    }
  }
  attr {
    key: "value"
    value {
      tensor {
        dtype: DT_INT32
        tensor_shape {
        }
        int_val: 2
      }
    }
  }
}
node {
  name: "icdar2017_data_provider/case/cond/cond_jpeg/decode_image/cond_jpeg/cond_png/cond_gif/Substr"
  op: "Substr"
  input: "icdar2017_data_provider/case/cond/cond_jpeg/decode_image/cond_jpeg/cond_png/cond_gif/Substr/Switch"
  input: "icdar2017_data_provider/case/cond/cond_jpeg/decode_image/cond_jpeg/cond_png/cond_gif/Substr/pos"
  input: "icdar2017_data_provider/case/cond/cond_jpeg/decode_image/cond_jpeg/cond_png/cond_gif/Substr/len"
  device: "/device:CPU:0"
  attr {
    key: "T"
    value {
      type: DT_INT32
    }
  }
  attr {
    key: "_output_shapes"
    value {
      list {
        shape {
        }
      }
    }
  }
  attr {
    key: "unit"
    value {
      s: "BYTE"
    }
  }
}
node {
  name: "icdar2017_data_provider/case/cond/cond_jpeg/decode_image/cond_jpeg/cond_png/cond_gif/Substr/Switch"
  op: "Switch"
  input: "icdar2017_data_provider/case/cond/cond_jpeg/decode_image/cond_jpeg/cond_png/cond_gif/DecodeGif/Switch"
  input: "icdar2017_data_provider/case/cond/cond_jpeg/decode_image/cond_jpeg/cond_png/cond_gif/pred_id"
  device: "/device:CPU:0"
  attr {
    key: "T"
    value {
      type: DT_STRING
    }
  }
  attr {
    key: "_class"
    value {
      list {
        s: "loc:@icdar2017_data_provider/Reshape"
      }
    }
  }
  attr {
    key: "_output_shapes"
    value {
      list {
        shape {
        }
        shape {
        }
      }
    }
  }
}
node {
  name: "icdar2017_data_provider/case/cond/cond_jpeg/decode_image/cond_jpeg/cond_png/cond_gif/is_bmp/y"
  op: "Const"
  input: "^icdar2017_data_provider/case/Assert/AssertGuard/Merge"
  input: "^icdar2017_data_provider/case/cond/cond_jpeg/decode_image/cond_jpeg/cond_png/cond_gif/switch_f"
  device: "/device:CPU:0"
  attr {
    key: "_output_shapes"
    value {
      list {
        shape {
        }
      }
    }
  }
  attr {
    key: "dtype"
    value {
      type: DT_STRING
    }
  }
  attr {
    key: "value"
    value {
      tensor {
        dtype: DT_STRING
        tensor_shape {
        }
        string_val: "BM"
      }
    }
  }
}
node {
  name: "icdar2017_data_provider/case/cond/cond_jpeg/decode_image/cond_jpeg/cond_png/cond_gif/is_bmp"
  op: "Equal"
  input: "icdar2017_data_provider/case/cond/cond_jpeg/decode_image/cond_jpeg/cond_png/cond_gif/Substr"
  input: "icdar2017_data_provider/case/cond/cond_jpeg/decode_image/cond_jpeg/cond_png/cond_gif/is_bmp/y"
  device: "/device:CPU:0"
  attr {
    key: "T"
    value {
      type: DT_STRING
    }
  }
  attr {
    key: "_output_shapes"
    value {
      list {
        shape {
        }
      }
    }
  }
}
node {
  name: "icdar2017_data_provider/case/cond/cond_jpeg/decode_image/cond_jpeg/cond_png/cond_gif/Assert_1/Const"
  op: "Const"
  input: "^icdar2017_data_provider/case/Assert/AssertGuard/Merge"
  input: "^icdar2017_data_provider/case/cond/cond_jpeg/decode_image/cond_jpeg/cond_png/cond_gif/switch_f"
  device: "/device:CPU:0"
  attr {
    key: "_output_shapes"
    value {
      list {
        shape {
        }
      }
    }
  }
  attr {
    key: "dtype"
    value {
      type: DT_STRING
    }
  }
  attr {
    key: "value"
    value {
      tensor {
        dtype: DT_STRING
        tensor_shape {
        }
        string_val: "Unable to decode bytes as JPEG, PNG, GIF, or BMP"
      }
    }
  }
}
node {
  name: "icdar2017_data_provider/case/cond/cond_jpeg/decode_image/cond_jpeg/cond_png/cond_gif/Assert_1/Assert/data_0"
  op: "Const"
  input: "^icdar2017_data_provider/case/Assert/AssertGuard/Merge"
  input: "^icdar2017_data_provider/case/cond/cond_jpeg/decode_image/cond_jpeg/cond_png/cond_gif/switch_f"
  device: "/device:CPU:0"
  attr {
    key: "_output_shapes"
    value {
      list {
        shape {
        }
      }
    }
  }
  attr {
    key: "dtype"
    value {
      type: DT_STRING
    }
  }
  attr {
    key: "value"
    value {
      tensor {
        dtype: DT_STRING
        tensor_shape {
        }
        string_val: "Unable to decode bytes as JPEG, PNG, GIF, or BMP"
      }
    }
  }
}
node {
  name: "icdar2017_data_provider/case/cond/cond_jpeg/decode_image/cond_jpeg/cond_png/cond_gif/Assert_1/Assert"
  op: "Assert"
  input: "icdar2017_data_provider/case/cond/cond_jpeg/decode_image/cond_jpeg/cond_png/cond_gif/is_bmp"
  input: "icdar2017_data_provider/case/cond/cond_jpeg/decode_image/cond_jpeg/cond_png/cond_gif/Assert_1/Assert/data_0"
  device: "/device:CPU:0"
  attr {
    key: "T"
    value {
      list {
        type: DT_STRING
      }
    }
  }
  attr {
    key: "summarize"
    value {
      i: 3
    }
  }
}
node {
  name: "icdar2017_data_provider/case/cond/cond_jpeg/decode_image/cond_jpeg/cond_png/cond_gif/check_channels/x"
  op: "Const"
  input: "^icdar2017_data_provider/case/Assert/AssertGuard/Merge"
  input: "^icdar2017_data_provider/case/cond/cond_jpeg/decode_image/cond_jpeg/cond_png/cond_gif/switch_f"
  device: "/device:CPU:0"
  attr {
    key: "_output_shapes"
    value {
      list {
        shape {
        }
      }
    }
  }
  attr {
    key: "dtype"
    value {
      type: DT_INT32
    }
  }
  attr {
    key: "value"
    value {
      tensor {
        dtype: DT_INT32
        tensor_shape {
        }
        int_val: 3
      }
    }
  }
}
node {
  name: "icdar2017_data_provider/case/cond/cond_jpeg/decode_image/cond_jpeg/cond_png/cond_gif/check_channels/y"
  op: "Const"
  input: "^icdar2017_data_provider/case/Assert/AssertGuard/Merge"
  input: "^icdar2017_data_provider/case/cond/cond_jpeg/decode_image/cond_jpeg/cond_png/cond_gif/switch_f"
  device: "/device:CPU:0"
  attr {
    key: "_output_shapes"
    value {
      list {
        shape {
        }
      }
    }
  }
  attr {
    key: "dtype"
    value {
      type: DT_INT32
    }
  }
  attr {
    key: "value"
    value {
      tensor {
        dtype: DT_INT32
        tensor_shape {
        }
        int_val: 1
      }
    }
  }
}
node {
  name: "icdar2017_data_provider/case/cond/cond_jpeg/decode_image/cond_jpeg/cond_png/cond_gif/check_channels"
  op: "NotEqual"
  input: "icdar2017_data_provider/case/cond/cond_jpeg/decode_image/cond_jpeg/cond_png/cond_gif/check_channels/x"
  input: "icdar2017_data_provider/case/cond/cond_jpeg/decode_image/cond_jpeg/cond_png/cond_gif/check_channels/y"
  device: "/device:CPU:0"
  attr {
    key: "T"
    value {
      type: DT_INT32
    }
  }
  attr {
    key: "_output_shapes"
    value {
      list {
        shape {
        }
      }
    }
  }
}
node {
  name: "icdar2017_data_provider/case/cond/cond_jpeg/decode_image/cond_jpeg/cond_png/cond_gif/Assert_2/Const"
  op: "Const"
  input: "^icdar2017_data_provider/case/Assert/AssertGuard/Merge"
  input: "^icdar2017_data_provider/case/cond/cond_jpeg/decode_image/cond_jpeg/cond_png/cond_gif/switch_f"
  device: "/device:CPU:0"
  attr {
    key: "_output_shapes"
    value {
      list {
        shape {
        }
      }
    }
  }
  attr {
    key: "dtype"
    value {
      type: DT_STRING
    }
  }
  attr {
    key: "value"
    value {
      tensor {
        dtype: DT_STRING
        tensor_shape {
        }
        string_val: "Channels must be in (None, 0, 3) when decoding BMP images"
      }
    }
  }
}
node {
  name: "icdar2017_data_provider/case/cond/cond_jpeg/decode_image/cond_jpeg/cond_png/cond_gif/Assert_2/Assert/data_0"
  op: "Const"
  input: "^icdar2017_data_provider/case/Assert/AssertGuard/Merge"
  input: "^icdar2017_data_provider/case/cond/cond_jpeg/decode_image/cond_jpeg/cond_png/cond_gif/switch_f"
  device: "/device:CPU:0"
  attr {
    key: "_output_shapes"
    value {
      list {
        shape {
        }
      }
    }
  }
  attr {
    key: "dtype"
    value {
      type: DT_STRING
    }
  }
  attr {
    key: "value"
    value {
      tensor {
        dtype: DT_STRING
        tensor_shape {
        }
        string_val: "Channels must be in (None, 0, 3) when decoding BMP images"
      }
    }
  }
}
node {
  name: "icdar2017_data_provider/case/cond/cond_jpeg/decode_image/cond_jpeg/cond_png/cond_gif/Assert_2/Assert"
  op: "Assert"
  input: "icdar2017_data_provider/case/cond/cond_jpeg/decode_image/cond_jpeg/cond_png/cond_gif/check_channels"
  input: "icdar2017_data_provider/case/cond/cond_jpeg/decode_image/cond_jpeg/cond_png/cond_gif/Assert_2/Assert/data_0"
  device: "/device:CPU:0"
  attr {
    key: "T"
    value {
      list {
        type: DT_STRING
      }
    }
  }
  attr {
    key: "summarize"
    value {
      i: 3
    }
  }
}
node {
  name: "icdar2017_data_provider/case/cond/cond_jpeg/decode_image/cond_jpeg/cond_png/cond_gif/DecodeBmp"
  op: "DecodeBmp"
  input: "icdar2017_data_provider/case/cond/cond_jpeg/decode_image/cond_jpeg/cond_png/cond_gif/Substr/Switch"
  input: "^icdar2017_data_provider/case/Assert/AssertGuard/Merge"
  input: "^icdar2017_data_provider/case/cond/cond_jpeg/decode_image/cond_jpeg/cond_png/cond_gif/Assert_1/Assert"
  input: "^icdar2017_data_provider/case/cond/cond_jpeg/decode_image/cond_jpeg/cond_png/cond_gif/Assert_2/Assert"
  device: "/device:CPU:0"
  attr {
    key: "_output_shapes"
    value {
      list {
        shape {
          dim {
            size: -1
          }
          dim {
            size: -1
          }
          dim {
            size: -1
          }
        }
      }
    }
  }
  attr {
    key: "channels"
    value {
      i: 0
    }
  }
}
node {
  name: "icdar2017_data_provider/case/cond/cond_jpeg/decode_image/cond_jpeg/cond_png/cond_gif/Identity_1"
  op: "Identity"
  input: "icdar2017_data_provider/case/cond/cond_jpeg/decode_image/cond_jpeg/cond_png/cond_gif/DecodeBmp"
  device: "/device:CPU:0"
  attr {
    key: "T"
    value {
      type: DT_UINT8
    }
  }
  attr {
    key: "_output_shapes"
    value {
      list {
        shape {
          dim {
            size: -1
          }
          dim {
            size: -1
          }
          dim {
            size: -1
          }
        }
      }
    }
  }
}
node {
  name: "icdar2017_data_provider/case/cond/cond_jpeg/decode_image/cond_jpeg/cond_png/cond_gif/Merge"
  op: "Merge"
  input: "icdar2017_data_provider/case/cond/cond_jpeg/decode_image/cond_jpeg/cond_png/cond_gif/Identity_1"
  input: "icdar2017_data_provider/case/cond/cond_jpeg/decode_image/cond_jpeg/cond_png/cond_gif/Identity"
  device: "/device:CPU:0"
  attr {
    key: "N"
    value {
      i: 2
    }
  }
  attr {
    key: "T"
    value {
      type: DT_UINT8
    }
  }
  attr {
    key: "_output_shapes"
    value {
      list {
        shape {
          unknown_rank: true
        }
        shape {
        }
      }
    }
  }
}
node {
  name: "icdar2017_data_provider/case/cond/cond_jpeg/decode_image/cond_jpeg/cond_png/Merge"
  op: "Merge"
  input: "icdar2017_data_provider/case/cond/cond_jpeg/decode_image/cond_jpeg/cond_png/cond_gif/Merge"
  input: "icdar2017_data_provider/case/cond/cond_jpeg/decode_image/cond_jpeg/cond_png/Identity"
  device: "/device:CPU:0"
  attr {
    key: "N"
    value {
      i: 2
    }
  }
  attr {
    key: "T"
    value {
      type: DT_UINT8
    }
  }
  attr {
    key: "_output_shapes"
    value {
      list {
        shape {
          unknown_rank: true
        }
        shape {
        }
      }
    }
  }
}
node {
  name: "icdar2017_data_provider/case/cond/cond_jpeg/decode_image/cond_jpeg/Merge"
  op: "Merge"
  input: "icdar2017_data_provider/case/cond/cond_jpeg/decode_image/cond_jpeg/cond_png/Merge"
  input: "icdar2017_data_provider/case/cond/cond_jpeg/decode_image/cond_jpeg/Identity"
  device: "/device:CPU:0"
  attr {
    key: "N"
    value {
      i: 2
    }
  }
  attr {
    key: "T"
    value {
      type: DT_UINT8
    }
  }
  attr {
    key: "_output_shapes"
    value {
      list {
        shape {
          unknown_rank: true
        }
        shape {
        }
      }
    }
  }
}
node {
  name: "icdar2017_data_provider/case/cond/cond_jpeg/Merge"
  op: "Merge"
  input: "icdar2017_data_provider/case/cond/cond_jpeg/decode_image/cond_jpeg/Merge"
  input: "icdar2017_data_provider/case/cond/cond_jpeg/DecodeJpeg"
  device: "/device:CPU:0"
  attr {
    key: "N"
    value {
      i: 2
    }
  }
  attr {
    key: "T"
    value {
      type: DT_UINT8
    }
  }
  attr {
    key: "_output_shapes"
    value {
      list {
        shape {
          unknown_rank: true
        }
        shape {
        }
      }
    }
  }
}
node {
  name: "icdar2017_data_provider/case/cond/Merge"
  op: "Merge"
  input: "icdar2017_data_provider/case/cond/cond_jpeg/Merge"
  input: "icdar2017_data_provider/case/cond/DecodeRaw"
  device: "/device:CPU:0"
  attr {
    key: "N"
    value {
      i: 2
    }
  }
  attr {
    key: "T"
    value {
      type: DT_UINT8
    }
  }
  attr {
    key: "_output_shapes"
    value {
      list {
        shape {
          dim {
            size: -1
          }
          dim {
            size: -1
          }
          dim {
            size: 3
          }
        }
        shape {
        }
      }
    }
  }
}
node {
  name: "icdar2017_data_provider/SparseToDense_1/default_value"
  op: "Const"
  device: "/device:CPU:0"
  attr {
    key: "_output_shapes"
    value {
      list {
        shape {
        }
      }
    }
  }
  attr {
    key: "dtype"
    value {
      type: DT_FLOAT
    }
  }
  attr {
    key: "value"
    value {
      tensor {
        dtype: DT_FLOAT
        tensor_shape {
        }
        float_val: 0.0
      }
    }
  }
}
node {
  name: "icdar2017_data_provider/SparseToDense_1"
  op: "SparseToDense"
  input: "icdar2017_data_provider/ParseSingleExample/ParseSingleExample:10"
  input: "icdar2017_data_provider/ParseSingleExample/ParseSingleExample:36"
  input: "icdar2017_data_provider/ParseSingleExample/ParseSingleExample:23"
  input: "icdar2017_data_provider/SparseToDense_1/default_value"
  device: "/device:CPU:0"
  attr {
    key: "T"
    value {
      type: DT_FLOAT
    }
  }
  attr {
    key: "Tindices"
    value {
      type: DT_INT64
    }
  }
  attr {
    key: "_output_shapes"
    value {
      list {
        shape {
          dim {
            size: -1
          }
        }
      }
    }
  }
  attr {
    key: "validate_indices"
    value {
      b: true
    }
  }
}
node {
  name: "icdar2017_data_provider/ExpandDims/dim"
  op: "Const"
  device: "/device:CPU:0"
  attr {
    key: "_output_shapes"
    value {
      list {
        shape {
        }
      }
    }
  }
  attr {
    key: "dtype"
    value {
      type: DT_INT32
    }
  }
  attr {
    key: "value"
    value {
      tensor {
        dtype: DT_INT32
        tensor_shape {
        }
        int_val: 0
      }
    }
  }
}
node {
  name: "icdar2017_data_provider/ExpandDims"
  op: "ExpandDims"
  input: "icdar2017_data_provider/ParseSingleExample/ParseSingleExample:25"
  input: "icdar2017_data_provider/ExpandDims/dim"
  device: "/device:CPU:0"
  attr {
    key: "T"
    value {
      type: DT_FLOAT
    }
  }
  attr {
    key: "Tdim"
    value {
      type: DT_INT32
    }
  }
  attr {
    key: "_output_shapes"
    value {
      list {
        shape {
          dim {
            size: 1
          }
          dim {
            size: -1
          }
        }
      }
    }
  }
}
node {
  name: "icdar2017_data_provider/ExpandDims_1/dim"
  op: "Const"
  device: "/device:CPU:0"
  attr {
    key: "_output_shapes"
    value {
      list {
        shape {
        }
      }
    }
  }
  attr {
    key: "dtype"
    value {
      type: DT_INT32
    }
  }
  attr {
    key: "value"
    value {
      tensor {
        dtype: DT_INT32
        tensor_shape {
        }
        int_val: 0
      }
    }
  }
}
node {
  name: "icdar2017_data_provider/ExpandDims_1"
  op: "ExpandDims"
  input: "icdar2017_data_provider/ParseSingleExample/ParseSingleExample:19"
  input: "icdar2017_data_provider/ExpandDims_1/dim"
  device: "/device:CPU:0"
  attr {
    key: "T"
    value {
      type: DT_FLOAT
    }
  }
  attr {
    key: "Tdim"
    value {
      type: DT_INT32
    }
  }
  attr {
    key: "_output_shapes"
    value {
      list {
        shape {
          dim {
            size: 1
          }
          dim {
            size: -1
          }
        }
      }
    }
  }
}
node {
  name: "icdar2017_data_provider/ExpandDims_2/dim"
  op: "Const"
  device: "/device:CPU:0"
  attr {
    key: "_output_shapes"
    value {
      list {
        shape {
        }
      }
    }
  }
  attr {
    key: "dtype"
    value {
      type: DT_INT32
    }
  }
  attr {
    key: "value"
    value {
      tensor {
        dtype: DT_INT32
        tensor_shape {
        }
        int_val: 0
      }
    }
  }
}
node {
  name: "icdar2017_data_provider/ExpandDims_2"
  op: "ExpandDims"
  input: "icdar2017_data_provider/ParseSingleExample/ParseSingleExample:24"
  input: "icdar2017_data_provider/ExpandDims_2/dim"
  device: "/device:CPU:0"
  attr {
    key: "T"
    value {
      type: DT_FLOAT
    }
  }
  attr {
    key: "Tdim"
    value {
      type: DT_INT32
    }
  }
  attr {
    key: "_output_shapes"
    value {
      list {
        shape {
          dim {
            size: 1
          }
          dim {
            size: -1
          }
        }
      }
    }
  }
}
node {
  name: "icdar2017_data_provider/ExpandDims_3/dim"
  op: "Const"
  device: "/device:CPU:0"
  attr {
    key: "_output_shapes"
    value {
      list {
        shape {
        }
      }
    }
  }
  attr {
    key: "dtype"
    value {
      type: DT_INT32
    }
  }
  attr {
    key: "value"
    value {
      tensor {
        dtype: DT_INT32
        tensor_shape {
        }
        int_val: 0
      }
    }
  }
}
node {
  name: "icdar2017_data_provider/ExpandDims_3"
  op: "ExpandDims"
  input: "icdar2017_data_provider/ParseSingleExample/ParseSingleExample:18"
  input: "icdar2017_data_provider/ExpandDims_3/dim"
  device: "/device:CPU:0"
  attr {
    key: "T"
    value {
      type: DT_FLOAT
    }
  }
  attr {
    key: "Tdim"
    value {
      type: DT_INT32
    }
  }
  attr {
    key: "_output_shapes"
    value {
      list {
        shape {
          dim {
            size: 1
          }
          dim {
            size: -1
          }
        }
      }
    }
  }
}
node {
  name: "icdar2017_data_provider/concat/axis"
  op: "Const"
  device: "/device:CPU:0"
  attr {
    key: "_output_shapes"
    value {
      list {
        shape {
        }
      }
    }
  }
  attr {
    key: "dtype"
    value {
      type: DT_INT32
    }
  }
  attr {
    key: "value"
    value {
      tensor {
        dtype: DT_INT32
        tensor_shape {
        }
        int_val: 0
      }
    }
  }
}
node {
  name: "icdar2017_data_provider/concat"
  op: "ConcatV2"
  input: "icdar2017_data_provider/ExpandDims"
  input: "icdar2017_data_provider/ExpandDims_1"
  input: "icdar2017_data_provider/ExpandDims_2"
  input: "icdar2017_data_provider/ExpandDims_3"
  input: "icdar2017_data_provider/concat/axis"
  device: "/device:CPU:0"
  attr {
    key: "N"
    value {
      i: 4
    }
  }
  attr {
    key: "T"
    value {
      type: DT_FLOAT
    }
  }
  attr {
    key: "Tidx"
    value {
      type: DT_INT32
    }
  }
  attr {
    key: "_output_shapes"
    value {
      list {
        shape {
          dim {
            size: 4
          }
          dim {
            size: -1
          }
        }
      }
    }
  }
}
node {
  name: "icdar2017_data_provider/transpose/perm"
  op: "Const"
  device: "/device:CPU:0"
  attr {
    key: "_output_shapes"
    value {
      list {
        shape {
          dim {
            size: 2
          }
        }
      }
    }
  }
  attr {
    key: "dtype"
    value {
      type: DT_INT32
    }
  }
  attr {
    key: "value"
    value {
      tensor {
        dtype: DT_INT32
        tensor_shape {
          dim {
            size: 2
          }
        }
        tensor_content: "\001\000\000\000\000\000\000\000"
      }
    }
  }
}
node {
  name: "icdar2017_data_provider/transpose"
  op: "Transpose"
  input: "icdar2017_data_provider/concat"
  input: "icdar2017_data_provider/transpose/perm"
  device: "/device:CPU:0"
  attr {
    key: "T"
    value {
      type: DT_FLOAT
    }
  }
  attr {
    key: "Tperm"
    value {
      type: DT_INT32
    }
  }
  attr {
    key: "_output_shapes"
    value {
      list {
        shape {
          dim {
            size: -1
          }
          dim {
            size: 4
          }
        }
      }
    }
  }
}
node {
  name: "icdar2017_data_provider/SparseToDense_2/default_value"
  op: "Const"
  device: "/device:CPU:0"
  attr {
    key: "_output_shapes"
    value {
      list {
        shape {
        }
      }
    }
  }
  attr {
    key: "dtype"
    value {
      type: DT_INT64
    }
  }
  attr {
    key: "value"
    value {
      tensor {
        dtype: DT_INT64
        tensor_shape {
        }
        int64_val: 0
      }
    }
  }
}
node {
  name: "icdar2017_data_provider/SparseToDense_2"
  op: "SparseToDense"
  input: "icdar2017_data_provider/ParseSingleExample/ParseSingleExample"
  input: "icdar2017_data_provider/ParseSingleExample/ParseSingleExample:26"
  input: "icdar2017_data_provider/ParseSingleExample/ParseSingleExample:13"
  input: "icdar2017_data_provider/SparseToDense_2/default_value"
  device: "/device:CPU:0"
  attr {
    key: "T"
    value {
      type: DT_INT64
    }
  }
  attr {
    key: "Tindices"
    value {
      type: DT_INT64
    }
  }
  attr {
    key: "_output_shapes"
    value {
      list {
        shape {
          dim {
            size: -1
          }
        }
      }
    }
  }
  attr {
    key: "validate_indices"
    value {
      b: true
    }
  }
}
node {
  name: "icdar2017_data_provider/SparseToDense_3/default_value"
  op: "Const"
  device: "/device:CPU:0"
  attr {
    key: "_output_shapes"
    value {
      list {
        shape {
        }
      }
    }
  }
  attr {
    key: "dtype"
    value {
      type: DT_FLOAT
    }
  }
  attr {
    key: "value"
    value {
      tensor {
        dtype: DT_FLOAT
        tensor_shape {
        }
        float_val: 0.0
      }
    }
  }
}
node {
  name: "icdar2017_data_provider/SparseToDense_3"
  op: "SparseToDense"
  input: "icdar2017_data_provider/ParseSingleExample/ParseSingleExample:2"
  input: "icdar2017_data_provider/ParseSingleExample/ParseSingleExample:28"
  input: "icdar2017_data_provider/ParseSingleExample/ParseSingleExample:15"
  input: "icdar2017_data_provider/SparseToDense_3/default_value"
  device: "/device:CPU:0"
  attr {
    key: "T"
    value {
      type: DT_FLOAT
    }
  }
  attr {
    key: "Tindices"
    value {
      type: DT_INT64
    }
  }
  attr {
    key: "_output_shapes"
    value {
      list {
        shape {
          dim {
            size: -1
          }
        }
      }
    }
  }
  attr {
    key: "validate_indices"
    value {
      b: true
    }
  }
}
node {
  name: "icdar2017_data_provider/SparseToDense_4/default_value"
  op: "Const"
  device: "/device:CPU:0"
  attr {
    key: "_output_shapes"
    value {
      list {
        shape {
        }
      }
    }
  }
  attr {
    key: "dtype"
    value {
      type: DT_FLOAT
    }
  }
  attr {
    key: "value"
    value {
      tensor {
        dtype: DT_FLOAT
        tensor_shape {
        }
        float_val: 0.0
      }
    }
  }
}
node {
  name: "icdar2017_data_provider/SparseToDense_4"
  op: "SparseToDense"
  input: "icdar2017_data_provider/ParseSingleExample/ParseSingleExample:3"
  input: "icdar2017_data_provider/ParseSingleExample/ParseSingleExample:29"
  input: "icdar2017_data_provider/ParseSingleExample/ParseSingleExample:16"
  input: "icdar2017_data_provider/SparseToDense_4/default_value"
  device: "/device:CPU:0"
  attr {
    key: "T"
    value {
      type: DT_FLOAT
    }
  }
  attr {
    key: "Tindices"
    value {
      type: DT_INT64
    }
  }
  attr {
    key: "_output_shapes"
    value {
      list {
        shape {
          dim {
            size: -1
          }
        }
      }
    }
  }
  attr {
    key: "validate_indices"
    value {
      b: true
    }
  }
}
node {
  name: "icdar2017_data_provider/SparseToDense_5/default_value"
  op: "Const"
  device: "/device:CPU:0"
  attr {
    key: "_output_shapes"
    value {
      list {
        shape {
        }
      }
    }
  }
  attr {
    key: "dtype"
    value {
      type: DT_FLOAT
    }
  }
  attr {
    key: "value"
    value {
      tensor {
        dtype: DT_FLOAT
        tensor_shape {
        }
        float_val: 0.0
      }
    }
  }
}
node {
  name: "icdar2017_data_provider/SparseToDense_5"
  op: "SparseToDense"
  input: "icdar2017_data_provider/ParseSingleExample/ParseSingleExample:1"
  input: "icdar2017_data_provider/ParseSingleExample/ParseSingleExample:27"
  input: "icdar2017_data_provider/ParseSingleExample/ParseSingleExample:14"
  input: "icdar2017_data_provider/SparseToDense_5/default_value"
  device: "/device:CPU:0"
  attr {
    key: "T"
    value {
      type: DT_FLOAT
    }
  }
  attr {
    key: "Tindices"
    value {
      type: DT_INT64
    }
  }
  attr {
    key: "_output_shapes"
    value {
      list {
        shape {
          dim {
            size: -1
          }
        }
      }
    }
  }
  attr {
    key: "validate_indices"
    value {
      b: true
    }
  }
}
node {
  name: "icdar2017_data_provider/SparseToDense_6/default_value"
  op: "Const"
  device: "/device:CPU:0"
  attr {
    key: "_output_shapes"
    value {
      list {
        shape {
        }
      }
    }
  }
  attr {
    key: "dtype"
    value {
      type: DT_FLOAT
    }
  }
  attr {
    key: "value"
    value {
      tensor {
        dtype: DT_FLOAT
        tensor_shape {
        }
        float_val: 0.0
      }
    }
  }
}
node {
  name: "icdar2017_data_provider/SparseToDense_6"
  op: "SparseToDense"
  input: "icdar2017_data_provider/ParseSingleExample/ParseSingleExample:7"
  input: "icdar2017_data_provider/ParseSingleExample/ParseSingleExample:33"
  input: "icdar2017_data_provider/ParseSingleExample/ParseSingleExample:20"
  input: "icdar2017_data_provider/SparseToDense_6/default_value"
  device: "/device:CPU:0"
  attr {
    key: "T"
    value {
      type: DT_FLOAT
    }
  }
  attr {
    key: "Tindices"
    value {
      type: DT_INT64
    }
  }
  attr {
    key: "_output_shapes"
    value {
      list {
        shape {
          dim {
            size: -1
          }
        }
      }
    }
  }
  attr {
    key: "validate_indices"
    value {
      b: true
    }
  }
}
node {
  name: "icdar2017_data_provider/SparseToDense_7/default_value"
  op: "Const"
  device: "/device:CPU:0"
  attr {
    key: "_output_shapes"
    value {
      list {
        shape {
        }
      }
    }
  }
  attr {
    key: "dtype"
    value {
      type: DT_FLOAT
    }
  }
  attr {
    key: "value"
    value {
      tensor {
        dtype: DT_FLOAT
        tensor_shape {
        }
        float_val: 0.0
      }
    }
  }
}
node {
  name: "icdar2017_data_provider/SparseToDense_7"
  op: "SparseToDense"
  input: "icdar2017_data_provider/ParseSingleExample/ParseSingleExample:9"
  input: "icdar2017_data_provider/ParseSingleExample/ParseSingleExample:35"
  input: "icdar2017_data_provider/ParseSingleExample/ParseSingleExample:22"
  input: "icdar2017_data_provider/SparseToDense_7/default_value"
  device: "/device:CPU:0"
  attr {
    key: "T"
    value {
      type: DT_FLOAT
    }
  }
  attr {
    key: "Tindices"
    value {
      type: DT_INT64
    }
  }
  attr {
    key: "_output_shapes"
    value {
      list {
        shape {
          dim {
            size: -1
          }
        }
      }
    }
  }
  attr {
    key: "validate_indices"
    value {
      b: true
    }
  }
}
node {
  name: "icdar2017_data_provider/SparseToDense_8/default_value"
  op: "Const"
  device: "/device:CPU:0"
  attr {
    key: "_output_shapes"
    value {
      list {
        shape {
        }
      }
    }
  }
  attr {
    key: "dtype"
    value {
      type: DT_FLOAT
    }
  }
  attr {
    key: "value"
    value {
      tensor {
        dtype: DT_FLOAT
        tensor_shape {
        }
        float_val: 0.0
      }
    }
  }
}
node {
  name: "icdar2017_data_provider/SparseToDense_8"
  op: "SparseToDense"
  input: "icdar2017_data_provider/ParseSingleExample/ParseSingleExample:8"
  input: "icdar2017_data_provider/ParseSingleExample/ParseSingleExample:34"
  input: "icdar2017_data_provider/ParseSingleExample/ParseSingleExample:21"
  input: "icdar2017_data_provider/SparseToDense_8/default_value"
  device: "/device:CPU:0"
  attr {
    key: "T"
    value {
      type: DT_FLOAT
    }
  }
  attr {
    key: "Tindices"
    value {
      type: DT_INT64
    }
  }
  attr {
    key: "_output_shapes"
    value {
      list {
        shape {
          dim {
            size: -1
          }
        }
      }
    }
  }
  attr {
    key: "validate_indices"
    value {
      b: true
    }
  }
}
node {
  name: "stack"
  op: "Pack"
  input: "icdar2017_data_provider/SparseToDense_5"
  input: "icdar2017_data_provider/SparseToDense_3"
  input: "icdar2017_data_provider/SparseToDense_4"
  input: "icdar2017_data_provider/SparseToDense"
  device: "/device:CPU:0"
  attr {
    key: "N"
    value {
      i: 4
    }
  }
  attr {
    key: "T"
    value {
      type: DT_FLOAT
    }
  }
  attr {
    key: "_output_shapes"
    value {
      list {
        shape {
          dim {
            size: 4
          }
          dim {
            size: -1
          }
        }
      }
    }
  }
  attr {
    key: "axis"
    value {
      i: 0
    }
  }
}
node {
  name: "transpose/perm"
  op: "Const"
  device: "/device:CPU:0"
  attr {
    key: "_output_shapes"
    value {
      list {
        shape {
          dim {
            size: 2
          }
        }
      }
    }
  }
  attr {
    key: "dtype"
    value {
      type: DT_INT32
    }
  }
  attr {
    key: "value"
    value {
      tensor {
        dtype: DT_INT32
        tensor_shape {
          dim {
            size: 2
          }
        }
        tensor_content: "\001\000\000\000\000\000\000\000"
      }
    }
  }
}
node {
  name: "transpose"
  op: "Transpose"
  input: "stack"
  input: "transpose/perm"
  device: "/device:CPU:0"
  attr {
    key: "T"
    value {
      type: DT_FLOAT
    }
  }
  attr {
    key: "Tperm"
    value {
      type: DT_INT32
    }
  }
  attr {
    key: "_output_shapes"
    value {
      list {
        shape {
          dim {
            size: -1
          }
          dim {
            size: 4
          }
        }
      }
    }
  }
}
node {
  name: "stack_1"
  op: "Pack"
  input: "icdar2017_data_provider/SparseToDense_6"
  input: "icdar2017_data_provider/SparseToDense_8"
  input: "icdar2017_data_provider/SparseToDense_7"
  input: "icdar2017_data_provider/SparseToDense_1"
  device: "/device:CPU:0"
  attr {
    key: "N"
    value {
      i: 4
    }
  }
  attr {
    key: "T"
    value {
      type: DT_FLOAT
    }
  }
  attr {
    key: "_output_shapes"
    value {
      list {
        shape {
          dim {
            size: 4
          }
          dim {
            size: -1
          }
        }
      }
    }
  }
  attr {
    key: "axis"
    value {
      i: 0
    }
  }
}
node {
  name: "transpose_1/perm"
  op: "Const"
  device: "/device:CPU:0"
  attr {
    key: "_output_shapes"
    value {
      list {
        shape {
          dim {
            size: 2
          }
        }
      }
    }
  }
  attr {
    key: "dtype"
    value {
      type: DT_INT32
    }
  }
  attr {
    key: "value"
    value {
      tensor {
        dtype: DT_INT32
        tensor_shape {
          dim {
            size: 2
          }
        }
        tensor_content: "\001\000\000\000\000\000\000\000"
      }
    }
  }
}
node {
  name: "transpose_1"
  op: "Transpose"
  input: "stack_1"
  input: "transpose_1/perm"
  device: "/device:CPU:0"
  attr {
    key: "T"
    value {
      type: DT_FLOAT
    }
  }
  attr {
    key: "Tperm"
    value {
      type: DT_INT32
    }
  }
  attr {
    key: "_output_shapes"
    value {
      list {
        shape {
          dim {
            size: -1
          }
          dim {
            size: 4
          }
        }
      }
    }
  }
}
node {
  name: "input_image"
  op: "Identity"
  input: "icdar2017_data_provider/case/cond/Merge"
  device: "/device:CPU:0"
  attr {
    key: "T"
    value {
      type: DT_UINT8
    }
  }
  attr {
    key: "_output_shapes"
    value {
      list {
        shape {
          dim {
            size: -1
          }
          dim {
            size: -1
          }
          dim {
            size: 3
          }
        }
      }
    }
  }
}
node {
  name: "ssd_preprocessing_train/random_uniform/shape"
  op: "Const"
  device: "/device:CPU:0"
  attr {
    key: "_output_shapes"
    value {
      list {
        shape {
          dim {
          }
        }
      }
    }
  }
  attr {
    key: "dtype"
    value {
      type: DT_INT32
    }
  }
  attr {
    key: "value"
    value {
      tensor {
        dtype: DT_INT32
        tensor_shape {
          dim {
          }
        }
      }
    }
  }
}
node {
  name: "ssd_preprocessing_train/random_uniform/min"
  op: "Const"
  device: "/device:CPU:0"
  attr {
    key: "_output_shapes"
    value {
      list {
        shape {
        }
      }
    }
  }
  attr {
    key: "dtype"
    value {
      type: DT_FLOAT
    }
  }
  attr {
    key: "value"
    value {
      tensor {
        dtype: DT_FLOAT
        tensor_shape {
        }
        float_val: 0.0
      }
    }
  }
}
node {
  name: "ssd_preprocessing_train/random_uniform/max"
  op: "Const"
  device: "/device:CPU:0"
  attr {
    key: "_output_shapes"
    value {
      list {
        shape {
        }
      }
    }
  }
  attr {
    key: "dtype"
    value {
      type: DT_FLOAT
    }
  }
  attr {
    key: "value"
    value {
      tensor {
        dtype: DT_FLOAT
        tensor_shape {
        }
        float_val: 1.0
      }
    }
  }
}
node {
  name: "ssd_preprocessing_train/random_uniform/RandomUniform"
  op: "RandomUniform"
  input: "ssd_preprocessing_train/random_uniform/shape"
  device: "/device:CPU:0"
  attr {
    key: "T"
    value {
      type: DT_INT32
    }
  }
  attr {
    key: "_output_shapes"
    value {
      list {
        shape {
        }
      }
    }
  }
  attr {
    key: "dtype"
    value {
      type: DT_FLOAT
    }
  }
  attr {
    key: "seed"
    value {
      i: 0
    }
  }
  attr {
    key: "seed2"
    value {
      i: 0
    }
  }
}
node {
  name: "ssd_preprocessing_train/random_uniform/sub"
  op: "Sub"
  input: "ssd_preprocessing_train/random_uniform/max"
  input: "ssd_preprocessing_train/random_uniform/min"
  device: "/device:CPU:0"
  attr {
    key: "T"
    value {
      type: DT_FLOAT
    }
  }
  attr {
    key: "_output_shapes"
    value {
      list {
        shape {
        }
      }
    }
  }
}
node {
  name: "ssd_preprocessing_train/random_uniform/mul"
  op: "Mul"
  input: "ssd_preprocessing_train/random_uniform/RandomUniform"
  input: "ssd_preprocessing_train/random_uniform/sub"
  device: "/device:CPU:0"
  attr {
    key: "T"
    value {
      type: DT_FLOAT
    }
  }
  attr {
    key: "_output_shapes"
    value {
      list {
        shape {
        }
      }
    }
  }
}
node {
  name: "ssd_preprocessing_train/random_uniform"
  op: "Add"
  input: "ssd_preprocessing_train/random_uniform/mul"
  input: "ssd_preprocessing_train/random_uniform/min"
  device: "/device:CPU:0"
  attr {
    key: "T"
    value {
      type: DT_FLOAT
    }
  }
  attr {
    key: "_output_shapes"
    value {
      list {
        shape {
        }
      }
    }
  }
}
node {
  name: "ssd_preprocessing_train/Less/y"
  op: "Const"
  device: "/device:CPU:0"
  attr {
    key: "_output_shapes"
    value {
      list {
        shape {
        }
      }
    }
  }
  attr {
    key: "dtype"
    value {
      type: DT_FLOAT
    }
  }
  attr {
    key: "value"
    value {
      tensor {
        dtype: DT_FLOAT
        tensor_shape {
        }
        float_val: 0.5
      }
    }
  }
}
node {
  name: "ssd_preprocessing_train/Less"
  op: "Less"
  input: "ssd_preprocessing_train/random_uniform"
  input: "ssd_preprocessing_train/Less/y"
  device: "/device:CPU:0"
  attr {
    key: "T"
    value {
      type: DT_FLOAT
    }
  }
  attr {
    key: "_output_shapes"
    value {
      list {
        shape {
        }
      }
    }
  }
}
node {
  name: "ssd_preprocessing_train/cond/Switch"
  op: "Switch"
  input: "ssd_preprocessing_train/Less"
  input: "ssd_preprocessing_train/Less"
  device: "/device:CPU:0"
  attr {
    key: "T"
    value {
      type: DT_BOOL
    }
  }
  attr {
    key: "_output_shapes"
    value {
      list {
        shape {
        }
        shape {
        }
      }
    }
  }
}
node {
  name: "ssd_preprocessing_train/cond/switch_t"
  op: "Identity"
  input: "ssd_preprocessing_train/cond/Switch:1"
  device: "/device:CPU:0"
  attr {
    key: "T"
    value {
      type: DT_BOOL
    }
  }
  attr {
    key: "_output_shapes"
    value {
      list {
        shape {
        }
      }
    }
  }
}
node {
  name: "ssd_preprocessing_train/cond/switch_f"
  op: "Identity"
  input: "ssd_preprocessing_train/cond/Switch"
  device: "/device:CPU:0"
  attr {
    key: "T"
    value {
      type: DT_BOOL
    }
  }
  attr {
    key: "_output_shapes"
    value {
      list {
        shape {
        }
      }
    }
  }
}
node {
  name: "ssd_preprocessing_train/cond/pred_id"
  op: "Identity"
  input: "ssd_preprocessing_train/Less"
  device: "/device:CPU:0"
  attr {
    key: "T"
    value {
      type: DT_BOOL
    }
  }
  attr {
    key: "_output_shapes"
    value {
      list {
        shape {
        }
      }
    }
  }
}
node {
  name: "ssd_preprocessing_train/cond/random_rotate90/random_uniform/shape"
  op: "Const"
  input: "^ssd_preprocessing_train/cond/switch_t"
  device: "/device:CPU:0"
  attr {
    key: "_output_shapes"
    value {
      list {
        shape {
          dim {
          }
        }
      }
    }
  }
  attr {
    key: "dtype"
    value {
      type: DT_INT32
    }
  }
  attr {
    key: "value"
    value {
      tensor {
        dtype: DT_INT32
        tensor_shape {
          dim {
          }
        }
      }
    }
  }
}
node {
  name: "ssd_preprocessing_train/cond/random_rotate90/random_uniform/min"
  op: "Const"
  input: "^ssd_preprocessing_train/cond/switch_t"
  device: "/device:CPU:0"
  attr {
    key: "_output_shapes"
    value {
      list {
        shape {
        }
      }
    }
  }
  attr {
    key: "dtype"
    value {
      type: DT_FLOAT
    }
  }
  attr {
    key: "value"
    value {
      tensor {
        dtype: DT_FLOAT
        tensor_shape {
        }
        float_val: 0.0
      }
    }
  }
}
node {
  name: "ssd_preprocessing_train/cond/random_rotate90/random_uniform/max"
  op: "Const"
  input: "^ssd_preprocessing_train/cond/switch_t"
  device: "/device:CPU:0"
  attr {
    key: "_output_shapes"
    value {
      list {
        shape {
        }
      }
    }
  }
  attr {
    key: "dtype"
    value {
      type: DT_FLOAT
    }
  }
  attr {
    key: "value"
    value {
      tensor {
        dtype: DT_FLOAT
        tensor_shape {
        }
        float_val: 10000.0
      }
    }
  }
}
node {
  name: "ssd_preprocessing_train/cond/random_rotate90/random_uniform/RandomUniform"
  op: "RandomUniform"
  input: "ssd_preprocessing_train/cond/random_rotate90/random_uniform/shape"
  device: "/device:CPU:0"
  attr {
    key: "T"
    value {
      type: DT_INT32
    }
  }
  attr {
    key: "_output_shapes"
    value {
      list {
        shape {
        }
      }
    }
  }
  attr {
    key: "dtype"
    value {
      type: DT_FLOAT
    }
  }
  attr {
    key: "seed"
    value {
      i: 0
    }
  }
  attr {
    key: "seed2"
    value {
      i: 0
    }
  }
}
node {
  name: "ssd_preprocessing_train/cond/random_rotate90/random_uniform/sub"
  op: "Sub"
  input: "ssd_preprocessing_train/cond/random_rotate90/random_uniform/max"
  input: "ssd_preprocessing_train/cond/random_rotate90/random_uniform/min"
  device: "/device:CPU:0"
  attr {
    key: "T"
    value {
      type: DT_FLOAT
    }
  }
  attr {
    key: "_output_shapes"
    value {
      list {
        shape {
        }
      }
    }
  }
}
node {
  name: "ssd_preprocessing_train/cond/random_rotate90/random_uniform/mul"
  op: "Mul"
  input: "ssd_preprocessing_train/cond/random_rotate90/random_uniform/RandomUniform"
  input: "ssd_preprocessing_train/cond/random_rotate90/random_uniform/sub"
  device: "/device:CPU:0"
  attr {
    key: "T"
    value {
      type: DT_FLOAT
    }
  }
  attr {
    key: "_output_shapes"
    value {
      list {
        shape {
        }
      }
    }
  }
}
node {
  name: "ssd_preprocessing_train/cond/random_rotate90/random_uniform"
  op: "Add"
  input: "ssd_preprocessing_train/cond/random_rotate90/random_uniform/mul"
  input: "ssd_preprocessing_train/cond/random_rotate90/random_uniform/min"
  device: "/device:CPU:0"
  attr {
    key: "T"
    value {
      type: DT_FLOAT
    }
  }
  attr {
    key: "_output_shapes"
    value {
      list {
        shape {
        }
      }
    }
  }
}
node {
  name: "ssd_preprocessing_train/cond/random_rotate90/Cast"
  op: "Cast"
  input: "ssd_preprocessing_train/cond/random_rotate90/random_uniform"
  device: "/device:CPU:0"
  attr {
    key: "DstT"
    value {
      type: DT_INT32
    }
  }
  attr {
    key: "SrcT"
    value {
      type: DT_FLOAT
    }
  }
  attr {
    key: "Truncate"
    value {
      b: false
    }
  }
  attr {
    key: "_output_shapes"
    value {
      list {
        shape {
        }
      }
    }
  }
}
node {
  name: "ssd_preprocessing_train/cond/random_rotate90/Shape"
  op: "Shape"
  input: "ssd_preprocessing_train/cond/random_rotate90/Shape/Switch:1"
  device: "/device:CPU:0"
  attr {
    key: "T"
    value {
      type: DT_UINT8
    }
  }
  attr {
    key: "_output_shapes"
    value {
      list {
        shape {
          dim {
            size: 3
          }
        }
      }
    }
  }
  attr {
    key: "out_type"
    value {
      type: DT_INT32
    }
  }
}
node {
  name: "ssd_preprocessing_train/cond/random_rotate90/Shape/Switch"
  op: "Switch"
  input: "input_image"
  input: "ssd_preprocessing_train/cond/pred_id"
  device: "/device:CPU:0"
  attr {
    key: "T"
    value {
      type: DT_UINT8
    }
  }
  attr {
    key: "_class"
    value {
      list {
        s: "loc:@input_image"
      }
    }
  }
  attr {
    key: "_output_shapes"
    value {
      list {
        shape {
          dim {
            size: -1
          }
          dim {
            size: -1
          }
          dim {
            size: 3
          }
        }
        shape {
          dim {
            size: -1
          }
          dim {
            size: -1
          }
          dim {
            size: 3
          }
        }
      }
    }
  }
}
node {
  name: "ssd_preprocessing_train/cond/random_rotate90/strided_slice/stack"
  op: "Const"
  input: "^ssd_preprocessing_train/cond/switch_t"
  device: "/device:CPU:0"
  attr {
    key: "_output_shapes"
    value {
      list {
        shape {
          dim {
            size: 1
          }
        }
      }
    }
  }
  attr {
    key: "dtype"
    value {
      type: DT_INT32
    }
  }
  attr {
    key: "value"
    value {
      tensor {
        dtype: DT_INT32
        tensor_shape {
          dim {
            size: 1
          }
        }
        int_val: 0
      }
    }
  }
}
node {
  name: "ssd_preprocessing_train/cond/random_rotate90/strided_slice/stack_1"
  op: "Const"
  input: "^ssd_preprocessing_train/cond/switch_t"
  device: "/device:CPU:0"
  attr {
    key: "_output_shapes"
    value {
      list {
        shape {
          dim {
            size: 1
          }
        }
      }
    }
  }
  attr {
    key: "dtype"
    value {
      type: DT_INT32
    }
  }
  attr {
    key: "value"
    value {
      tensor {
        dtype: DT_INT32
        tensor_shape {
          dim {
            size: 1
          }
        }
        int_val: 1
      }
    }
  }
}
node {
  name: "ssd_preprocessing_train/cond/random_rotate90/strided_slice/stack_2"
  op: "Const"
  input: "^ssd_preprocessing_train/cond/switch_t"
  device: "/device:CPU:0"
  attr {
    key: "_output_shapes"
    value {
      list {
        shape {
          dim {
            size: 1
          }
        }
      }
    }
  }
  attr {
    key: "dtype"
    value {
      type: DT_INT32
    }
  }
  attr {
    key: "value"
    value {
      tensor {
        dtype: DT_INT32
        tensor_shape {
          dim {
            size: 1
          }
        }
        int_val: 1
      }
    }
  }
}
node {
  name: "ssd_preprocessing_train/cond/random_rotate90/strided_slice"
  op: "StridedSlice"
  input: "ssd_preprocessing_train/cond/random_rotate90/Shape"
  input: "ssd_preprocessing_train/cond/random_rotate90/strided_slice/stack"
  input: "ssd_preprocessing_train/cond/random_rotate90/strided_slice/stack_1"
  input: "ssd_preprocessing_train/cond/random_rotate90/strided_slice/stack_2"
  device: "/device:CPU:0"
  attr {
    key: "Index"
    value {
      type: DT_INT32
    }
  }
  attr {
    key: "T"
    value {
      type: DT_INT32
    }
  }
  attr {
    key: "_output_shapes"
    value {
      list {
        shape {
        }
      }
    }
  }
  attr {
    key: "begin_mask"
    value {
      i: 0
    }
  }
  attr {
    key: "ellipsis_mask"
    value {
      i: 0
    }
  }
  attr {
    key: "end_mask"
    value {
      i: 0
    }
  }
  attr {
    key: "new_axis_mask"
    value {
      i: 0
    }
  }
  attr {
    key: "shrink_axis_mask"
    value {
      i: 1
    }
  }
}
node {
  name: "ssd_preprocessing_train/cond/random_rotate90/strided_slice_1/stack"
  op: "Const"
  input: "^ssd_preprocessing_train/cond/switch_t"
  device: "/device:CPU:0"
  attr {
    key: "_output_shapes"
    value {
      list {
        shape {
          dim {
            size: 1
          }
        }
      }
    }
  }
  attr {
    key: "dtype"
    value {
      type: DT_INT32
    }
  }
  attr {
    key: "value"
    value {
      tensor {
        dtype: DT_INT32
        tensor_shape {
          dim {
            size: 1
          }
        }
        int_val: 1
      }
    }
  }
}
node {
  name: "ssd_preprocessing_train/cond/random_rotate90/strided_slice_1/stack_1"
  op: "Const"
  input: "^ssd_preprocessing_train/cond/switch_t"
  device: "/device:CPU:0"
  attr {
    key: "_output_shapes"
    value {
      list {
        shape {
          dim {
            size: 1
          }
        }
      }
    }
  }
  attr {
    key: "dtype"
    value {
      type: DT_INT32
    }
  }
  attr {
    key: "value"
    value {
      tensor {
        dtype: DT_INT32
        tensor_shape {
          dim {
            size: 1
          }
        }
        int_val: 2
      }
    }
  }
}
node {
  name: "ssd_preprocessing_train/cond/random_rotate90/strided_slice_1/stack_2"
  op: "Const"
  input: "^ssd_preprocessing_train/cond/switch_t"
  device: "/device:CPU:0"
  attr {
    key: "_output_shapes"
    value {
      list {
        shape {
          dim {
            size: 1
          }
        }
      }
    }
  }
  attr {
    key: "dtype"
    value {
      type: DT_INT32
    }
  }
  attr {
    key: "value"
    value {
      tensor {
        dtype: DT_INT32
        tensor_shape {
          dim {
            size: 1
          }
        }
        int_val: 1
      }
    }
  }
}
node {
  name: "ssd_preprocessing_train/cond/random_rotate90/strided_slice_1"
  op: "StridedSlice"
  input: "ssd_preprocessing_train/cond/random_rotate90/Shape"
  input: "ssd_preprocessing_train/cond/random_rotate90/strided_slice_1/stack"
  input: "ssd_preprocessing_train/cond/random_rotate90/strided_slice_1/stack_1"
  input: "ssd_preprocessing_train/cond/random_rotate90/strided_slice_1/stack_2"
  device: "/device:CPU:0"
  attr {
    key: "Index"
    value {
      type: DT_INT32
    }
  }
  attr {
    key: "T"
    value {
      type: DT_INT32
    }
  }
  attr {
    key: "_output_shapes"
    value {
      list {
        shape {
        }
      }
    }
  }
  attr {
    key: "begin_mask"
    value {
      i: 0
    }
  }
  attr {
    key: "ellipsis_mask"
    value {
      i: 0
    }
  }
  attr {
    key: "end_mask"
    value {
      i: 0
    }
  }
  attr {
    key: "new_axis_mask"
    value {
      i: 0
    }
  }
  attr {
    key: "shrink_axis_mask"
    value {
      i: 1
    }
  }
}
node {
  name: "ssd_preprocessing_train/cond/random_rotate90/rot90/Shape"
  op: "Shape"
  input: "ssd_preprocessing_train/cond/random_rotate90/Shape/Switch:1"
  device: "/device:CPU:0"
  attr {
    key: "T"
    value {
      type: DT_UINT8
    }
  }
  attr {
    key: "_output_shapes"
    value {
      list {
        shape {
          dim {
            size: 3
          }
        }
      }
    }
  }
  attr {
    key: "out_type"
    value {
      type: DT_INT32
    }
  }
}
node {
  name: "ssd_preprocessing_train/cond/random_rotate90/rot90/assert_positive/Const"
  op: "Const"
  input: "^ssd_preprocessing_train/cond/switch_t"
  device: "/device:CPU:0"
  attr {
    key: "_output_shapes"
    value {
      list {
        shape {
        }
      }
    }
  }
  attr {
    key: "dtype"
    value {
      type: DT_INT32
    }
  }
  attr {
    key: "value"
    value {
      tensor {
        dtype: DT_INT32
        tensor_shape {
        }
        int_val: 0
      }
    }
  }
}
node {
  name: "ssd_preprocessing_train/cond/random_rotate90/rot90/assert_positive/assert_less/Less"
  op: "Less"
  input: "ssd_preprocessing_train/cond/random_rotate90/rot90/assert_positive/Const"
  input: "ssd_preprocessing_train/cond/random_rotate90/rot90/Shape"
  device: "/device:CPU:0"
  attr {
    key: "T"
    value {
      type: DT_INT32
    }
  }
  attr {
    key: "_output_shapes"
    value {
      list {
        shape {
          dim {
            size: 3
          }
        }
      }
    }
  }
}
node {
  name: "ssd_preprocessing_train/cond/random_rotate90/rot90/assert_positive/assert_less/Const"
  op: "Const"
  input: "^ssd_preprocessing_train/cond/switch_t"
  device: "/device:CPU:0"
  attr {
    key: "_output_shapes"
    value {
      list {
        shape {
          dim {
            size: 1
          }
        }
      }
    }
  }
  attr {
    key: "dtype"
    value {
      type: DT_INT32
    }
  }
  attr {
    key: "value"
    value {
      tensor {
        dtype: DT_INT32
        tensor_shape {
          dim {
            size: 1
          }
        }
        int_val: 0
      }
    }
  }
}
node {
  name: "ssd_preprocessing_train/cond/random_rotate90/rot90/assert_positive/assert_less/All"
  op: "All"
  input: "ssd_preprocessing_train/cond/random_rotate90/rot90/assert_positive/assert_less/Less"
  input: "ssd_preprocessing_train/cond/random_rotate90/rot90/assert_positive/assert_less/Const"
  device: "/device:CPU:0"
  attr {
    key: "Tidx"
    value {
      type: DT_INT32
    }
  }
  attr {
    key: "_output_shapes"
    value {
      list {
        shape {
        }
      }
    }
  }
  attr {
    key: "keep_dims"
    value {
      b: false
    }
  }
}
node {
  name: "ssd_preprocessing_train/cond/random_rotate90/rot90/assert_positive/assert_less/Assert/Const"
  op: "Const"
  input: "^ssd_preprocessing_train/cond/switch_t"
  device: "/device:CPU:0"
  attr {
    key: "_output_shapes"
    value {
      list {
        shape {
        }
      }
    }
  }
  attr {
    key: "dtype"
    value {
      type: DT_STRING
    }
  }
  attr {
    key: "value"
    value {
      tensor {
        dtype: DT_STRING
        tensor_shape {
        }
        string_val: "all dims of \'image.shape\' must be > 0."
      }
    }
  }
}
node {
  name: "ssd_preprocessing_train/cond/random_rotate90/rot90/assert_positive/assert_less/Assert/Assert/data_0"
  op: "Const"
  input: "^ssd_preprocessing_train/cond/switch_t"
  device: "/device:CPU:0"
  attr {
    key: "_output_shapes"
    value {
      list {
        shape {
        }
      }
    }
  }
  attr {
    key: "dtype"
    value {
      type: DT_STRING
    }
  }
  attr {
    key: "value"
    value {
      tensor {
        dtype: DT_STRING
        tensor_shape {
        }
        string_val: "all dims of \'image.shape\' must be > 0."
      }
    }
  }
}
node {
  name: "ssd_preprocessing_train/cond/random_rotate90/rot90/assert_positive/assert_less/Assert/Assert"
  op: "Assert"
  input: "ssd_preprocessing_train/cond/random_rotate90/rot90/assert_positive/assert_less/All"
  input: "ssd_preprocessing_train/cond/random_rotate90/rot90/assert_positive/assert_less/Assert/Assert/data_0"
  device: "/device:CPU:0"
  attr {
    key: "T"
    value {
      list {
        type: DT_STRING
      }
    }
  }
  attr {
    key: "summarize"
    value {
      i: 3
    }
  }
}
node {
  name: "ssd_preprocessing_train/cond/random_rotate90/rot90/control_dependency"
  op: "Identity"
  input: "ssd_preprocessing_train/cond/random_rotate90/Shape/Switch:1"
  input: "^ssd_preprocessing_train/cond/random_rotate90/rot90/assert_positive/assert_less/Assert/Assert"
  device: "/device:CPU:0"
  attr {
    key: "T"
    value {
      type: DT_UINT8
    }
  }
  attr {
    key: "_class"
    value {
      list {
        s: "loc:@input_image"
      }
    }
  }
  attr {
    key: "_output_shapes"
    value {
      list {
        shape {
          dim {
            size: -1
          }
          dim {
            size: -1
          }
          dim {
            size: 3
          }
        }
      }
    }
  }
}
node {
  name: "ssd_preprocessing_train/cond/random_rotate90/rot90/FloorMod/y"
  op: "Const"
  input: "^ssd_preprocessing_train/cond/switch_t"
  device: "/device:CPU:0"
  attr {
    key: "_output_shapes"
    value {
      list {
        shape {
        }
      }
    }
  }
  attr {
    key: "dtype"
    value {
      type: DT_INT32
    }
  }
  attr {
    key: "value"
    value {
      tensor {
        dtype: DT_INT32
        tensor_shape {
        }
        int_val: 4
      }
    }
  }
}
node {
  name: "ssd_preprocessing_train/cond/random_rotate90/rot90/FloorMod"
  op: "FloorMod"
  input: "ssd_preprocessing_train/cond/random_rotate90/Cast"
  input: "ssd_preprocessing_train/cond/random_rotate90/rot90/FloorMod/y"
  device: "/device:CPU:0"
  attr {
    key: "T"
    value {
      type: DT_INT32
    }
  }
  attr {
    key: "_output_shapes"
    value {
      list {
        shape {
        }
      }
    }
  }
}
node {
  name: "ssd_preprocessing_train/cond/random_rotate90/rot90/Equal/y"
  op: "Const"
  input: "^ssd_preprocessing_train/cond/switch_t"
  device: "/device:CPU:0"
  attr {
    key: "_output_shapes"
    value {
      list {
        shape {
        }
      }
    }
  }
  attr {
    key: "dtype"
    value {
      type: DT_INT32
    }
  }
  attr {
    key: "value"
    value {
      tensor {
        dtype: DT_INT32
        tensor_shape {
        }
        int_val: 1
      }
    }
  }
}
node {
  name: "ssd_preprocessing_train/cond/random_rotate90/rot90/Equal"
  op: "Equal"
  input: "ssd_preprocessing_train/cond/random_rotate90/rot90/FloorMod"
  input: "ssd_preprocessing_train/cond/random_rotate90/rot90/Equal/y"
  device: "/device:CPU:0"
  attr {
    key: "T"
    value {
      type: DT_INT32
    }
  }
  attr {
    key: "_output_shapes"
    value {
      list {
        shape {
        }
      }
    }
  }
}
node {
  name: "ssd_preprocessing_train/cond/random_rotate90/rot90/Equal_1/y"
  op: "Const"
  input: "^ssd_preprocessing_train/cond/switch_t"
  device: "/device:CPU:0"
  attr {
    key: "_output_shapes"
    value {
      list {
        shape {
        }
      }
    }
  }
  attr {
    key: "dtype"
    value {
      type: DT_INT32
    }
  }
  attr {
    key: "value"
    value {
      tensor {
        dtype: DT_INT32
        tensor_shape {
        }
        int_val: 2
      }
    }
  }
}
node {
  name: "ssd_preprocessing_train/cond/random_rotate90/rot90/Equal_1"
  op: "Equal"
  input: "ssd_preprocessing_train/cond/random_rotate90/rot90/FloorMod"
  input: "ssd_preprocessing_train/cond/random_rotate90/rot90/Equal_1/y"
  device: "/device:CPU:0"
  attr {
    key: "T"
    value {
      type: DT_INT32
    }
  }
  attr {
    key: "_output_shapes"
    value {
      list {
        shape {
        }
      }
    }
  }
}
node {
  name: "ssd_preprocessing_train/cond/random_rotate90/rot90/Equal_2/y"
  op: "Const"
  input: "^ssd_preprocessing_train/cond/switch_t"
  device: "/device:CPU:0"
  attr {
    key: "_output_shapes"
    value {
      list {
        shape {
        }
      }
    }
  }
  attr {
    key: "dtype"
    value {
      type: DT_INT32
    }
  }
  attr {
    key: "value"
    value {
      tensor {
        dtype: DT_INT32
        tensor_shape {
        }
        int_val: 3
      }
    }
  }
}
node {
  name: "ssd_preprocessing_train/cond/random_rotate90/rot90/Equal_2"
  op: "Equal"
  input: "ssd_preprocessing_train/cond/random_rotate90/rot90/FloorMod"
  input: "ssd_preprocessing_train/cond/random_rotate90/rot90/Equal_2/y"
  device: "/device:CPU:0"
  attr {
    key: "T"
    value {
      type: DT_INT32
    }
  }
  attr {
    key: "_output_shapes"
    value {
      list {
        shape {
        }
      }
    }
  }
}
node {
  name: "ssd_preprocessing_train/cond/random_rotate90/rot90/preds_c"
  op: "Pack"
  input: "ssd_preprocessing_train/cond/random_rotate90/rot90/Equal"
  input: "ssd_preprocessing_train/cond/random_rotate90/rot90/Equal_1"
  input: "ssd_preprocessing_train/cond/random_rotate90/rot90/Equal_2"
  device: "/device:CPU:0"
  attr {
    key: "N"
    value {
      i: 3
    }
  }
  attr {
    key: "T"
    value {
      type: DT_BOOL
    }
  }
  attr {
    key: "_output_shapes"
    value {
      list {
        shape {
          dim {
            size: 3
          }
        }
      }
    }
  }
  attr {
    key: "axis"
    value {
      i: 0
    }
  }
}
node {
  name: "ssd_preprocessing_train/cond/random_rotate90/rot90/Cast"
  op: "Cast"
  input: "ssd_preprocessing_train/cond/random_rotate90/rot90/preds_c"
  device: "/device:CPU:0"
  attr {
    key: "DstT"
    value {
      type: DT_INT32
    }
  }
  attr {
    key: "SrcT"
    value {
      type: DT_BOOL
    }
  }
  attr {
    key: "Truncate"
    value {
      b: false
    }
  }
  attr {
    key: "_output_shapes"
    value {
      list {
        shape {
          dim {
            size: 3
          }
        }
      }
    }
  }
}
node {
  name: "ssd_preprocessing_train/cond/random_rotate90/rot90/Const"
  op: "Const"
  input: "^ssd_preprocessing_train/cond/switch_t"
  device: "/device:CPU:0"
  attr {
    key: "_output_shapes"
    value {
      list {
        shape {
          dim {
            size: 1
          }
        }
      }
    }
  }
  attr {
    key: "dtype"
    value {
      type: DT_INT32
    }
  }
  attr {
    key: "value"
    value {
      tensor {
        dtype: DT_INT32
        tensor_shape {
          dim {
            size: 1
          }
        }
        int_val: 0
      }
    }
  }
}
node {
  name: "ssd_preprocessing_train/cond/random_rotate90/rot90/num_true_conds"
  op: "Sum"
  input: "ssd_preprocessing_train/cond/random_rotate90/rot90/Cast"
  input: "ssd_preprocessing_train/cond/random_rotate90/rot90/Const"
  device: "/device:CPU:0"
  attr {
    key: "T"
    value {
      type: DT_INT32
    }
  }
  attr {
    key: "Tidx"
    value {
      type: DT_INT32
    }
  }
  attr {
    key: "_output_shapes"
    value {
      list {
        shape {
        }
      }
    }
  }
  attr {
    key: "keep_dims"
    value {
      b: false
    }
  }
}
node {
  name: "ssd_preprocessing_train/cond/random_rotate90/rot90/n_true_conds"
  op: "Const"
  input: "^ssd_preprocessing_train/cond/switch_t"
  device: "/device:CPU:0"
  attr {
    key: "_output_shapes"
    value {
      list {
        shape {
        }
      }
    }
  }
  attr {
    key: "dtype"
    value {
      type: DT_INT32
    }
  }
  attr {
    key: "value"
    value {
      tensor {
        dtype: DT_INT32
        tensor_shape {
        }
        int_val: 1
      }
    }
  }
}
node {
  name: "ssd_preprocessing_train/cond/random_rotate90/rot90/LessEqual"
  op: "LessEqual"
  input: "ssd_preprocessing_train/cond/random_rotate90/rot90/num_true_conds"
  input: "ssd_preprocessing_train/cond/random_rotate90/rot90/n_true_conds"
  device: "/device:CPU:0"
  attr {
    key: "T"
    value {
      type: DT_INT32
    }
  }
  attr {
    key: "_output_shapes"
    value {
      list {
        shape {
        }
      }
    }
  }
}
node {
  name: "ssd_preprocessing_train/cond/random_rotate90/rot90/Assert/Const"
  op: "Const"
  input: "^ssd_preprocessing_train/cond/switch_t"
  device: "/device:CPU:0"
  attr {
    key: "_output_shapes"
    value {
      list {
        shape {
        }
      }
    }
  }
  attr {
    key: "dtype"
    value {
      type: DT_STRING
    }
  }
  attr {
    key: "value"
    value {
      tensor {
        dtype: DT_STRING
        tensor_shape {
        }
        string_val: "…"
      }
    }
  }
}
node {
  name: "ssd_preprocessing_train/cond/random_rotate90/rot90/Assert/AssertGuard/Switch"
  op: "Switch"
  input: "ssd_preprocessing_train/cond/random_rotate90/rot90/LessEqual"
  input: "ssd_preprocessing_train/cond/random_rotate90/rot90/LessEqual"
  device: "/device:CPU:0"
  attr {
    key: "T"
    value {
      type: DT_BOOL
    }
  }
  attr {
    key: "_output_shapes"
    value {
      list {
        shape {
        }
        shape {
        }
      }
    }
  }
}
node {
  name: "ssd_preprocessing_train/cond/random_rotate90/rot90/Assert/AssertGuard/switch_t"
  op: "Identity"
  input: "ssd_preprocessing_train/cond/random_rotate90/rot90/Assert/AssertGuard/Switch:1"
  device: "/device:CPU:0"
  attr {
    key: "T"
    value {
      type: DT_BOOL
    }
  }
  attr {
    key: "_output_shapes"
    value {
      list {
        shape {
        }
      }
    }
  }
}
node {
  name: "ssd_preprocessing_train/cond/random_rotate90/rot90/Assert/AssertGuard/switch_f"
  op: "Identity"
  input: "ssd_preprocessing_train/cond/random_rotate90/rot90/Assert/AssertGuard/Switch"
  device: "/device:CPU:0"
  attr {
    key: "T"
    value {
      type: DT_BOOL
    }
  }
  attr {
    key: "_output_shapes"
    value {
      list {
        shape {
        }
      }
    }
  }
}
node {
  name: "ssd_preprocessing_train/cond/random_rotate90/rot90/Assert/AssertGuard/pred_id"
  op: "Identity"
  input: "ssd_preprocessing_train/cond/random_rotate90/rot90/LessEqual"
  device: "/device:CPU:0"
  attr {
    key: "T"
    value {
      type: DT_BOOL
    }
  }
  attr {
    key: "_output_shapes"
    value {
      list {
        shape {
        }
      }
    }
  }
}
node {
  name: "ssd_preprocessing_train/cond/random_rotate90/rot90/Assert/AssertGuard/NoOp"
  op: "NoOp"
  input: "^ssd_preprocessing_train/cond/random_rotate90/rot90/Assert/AssertGuard/switch_t"
  device: "/device:CPU:0"
}
node {
  name: "ssd_preprocessing_train/cond/random_rotate90/rot90/Assert/AssertGuard/control_dependency"
  op: "Identity"
  input: "ssd_preprocessing_train/cond/random_rotate90/rot90/Assert/AssertGuard/switch_t"
  input: "^ssd_preprocessing_train/cond/random_rotate90/rot90/Assert/AssertGuard/NoOp"
  device: "/device:CPU:0"
  attr {
    key: "T"
    value {
      type: DT_BOOL
    }
  }
  attr {
    key: "_class"
    value {
      list {
        s: "loc:@ssd_preprocessing_train/cond/random_rotate90/rot90/Assert/AssertGuard/switch_t"
      }
    }
  }
  attr {
    key: "_output_shapes"
    value {
      list {
        shape {
        }
      }
    }
  }
}
node {
  name: "ssd_preprocessing_train/cond/random_rotate90/rot90/Assert/AssertGuard/Assert/data_0"
  op: "Const"
  input: "^ssd_preprocessing_train/cond/random_rotate90/rot90/Assert/AssertGuard/switch_f"
  device: "/device:CPU:0"
  attr {
    key: "_output_shapes"
    value {
      list {
        shape {
        }
      }
    }
  }
  attr {
    key: "dtype"
    value {
      type: DT_STRING
    }
  }
  attr {
    key: "value"
    value {
      tensor {
        dtype: DT_STRING
        tensor_shape {
        }
        string_val: "…"
      }
    }
  }
}
node {
  name: "ssd_preprocessing_train/cond/random_rotate90/rot90/Assert/AssertGuard/Assert"
  op: "Assert"
  input: "ssd_preprocessing_train/cond/random_rotate90/rot90/Assert/AssertGuard/Assert/Switch"
  input: "ssd_preprocessing_train/cond/random_rotate90/rot90/Assert/AssertGuard/Assert/data_0"
  input: "ssd_preprocessing_train/cond/random_rotate90/rot90/Assert/AssertGuard/Assert/Switch_1"
  device: "/device:CPU:0"
  attr {
    key: "T"
    value {
      list {
        type: DT_STRING
        type: DT_BOOL
      }
    }
  }
  attr {
    key: "summarize"
    value {
      i: 3
    }
  }
}
node {
  name: "ssd_preprocessing_train/cond/random_rotate90/rot90/Assert/AssertGuard/Assert/Switch"
  op: "Switch"
…
  name: "init_ops/report_uninitialized_variables/IsVariableInitialized_118"
  op: "IsVariableInitialized"
  input: "conv5/conv5_3/biases/ExponentialMovingAverage"
  device: "/device:GPU:0"
  attr {
    key: "_class"
    value {
      list {
        s: "loc:@conv5/conv5_3/biases"
      }
    }
  }
  attr {
    key: "_output_shapes"
    value {
      list {
        shape {
        }
      }
    }
  }
  attr {
    key: "dtype"
    value {
      type: DT_FLOAT
    }
  }
}
node {
  name: "init_ops/report_uninitialized_variables/IsVariableInitialized_119"
  op: "IsVariableInitialized"
  input: "fc6/weights/ExponentialMovingAverage"
  device: "/device:GPU:0"
  attr {
    key: "_class"
    value {
      list {
        s: "loc:@fc6/weights"
      }
    }
  }
  attr {
    key: "_output_shapes"
    value {
      list {
        shape {
        }
      }
    }
  }
  attr {
    key: "dtype"
    value {
      type: DT_FLOAT
    }
  }
}
node {
  name: "init_ops/report_uninitialized_variables/IsVariableInitialized_120"
  op: "IsVariableInitialized"
  input: "fc6/biases/ExponentialMovingAverage"
  device: "/device:GPU:0"
  attr {
    key: "_class"
    value {
      list {
        s: "loc:@fc6/biases"
      }
    }
  }
  attr {
    key: "_output_shapes"
    value {
      list {
        shape {
        }
      }
    }
  }
  attr {
    key: "dtype"
    value {
      type: DT_FLOAT
    }
  }
}
node {
  name: "init_ops/report_uninitialized_variables/IsVariableInitialized_121"
  op: "IsVariableInitialized"
  input: "fc7/weights/ExponentialMovingAverage"
  device: "/device:GPU:0"
  attr {
    key: "_class"
    value {
      list {
        s: "loc:@fc7/weights"
      }
    }
  }
  attr {
    key: "_output_shapes"
    value {
      list {
        shape {
        }
      }
    }
  }
  attr {
    key: "dtype"
    value {
      type: DT_FLOAT
    }
  }
}
node {
  name: "init_ops/report_uninitialized_variables/IsVariableInitialized_122"
  op: "IsVariableInitialized"
  input: "fc7/biases/ExponentialMovingAverage"
  device: "/device:GPU:0"
  attr {
    key: "_class"
    value {
      list {
        s: "loc:@fc7/biases"
      }
    }
  }
  attr {
    key: "_output_shapes"
    value {
      list {
        shape {
        }
      }
    }
  }
  attr {
    key: "dtype"
    value {
      type: DT_FLOAT
    }
  }
}
node {
  name: "init_ops/report_uninitialized_variables/IsVariableInitialized_123"
  op: "IsVariableInitialized"
  input: "pixel_cls/score_from_fc7/weights/ExponentialMovingAverage"
  device: "/device:GPU:0"
  attr {
    key: "_class"
    value {
      list {
        s: "loc:@pixel_cls/score_from_fc7/weights"
      }
    }
  }
  attr {
    key: "_output_shapes"
    value {
      list {
        shape {
        }
      }
    }
  }
  attr {
    key: "dtype"
    value {
      type: DT_FLOAT
    }
  }
}
node {
  name: "init_ops/report_uninitialized_variables/IsVariableInitialized_124"
  op: "IsVariableInitialized"
  input: "pixel_cls/score_from_fc7/biases/ExponentialMovingAverage"
  device: "/device:GPU:0"
  attr {
    key: "_class"
    value {
      list {
        s: "loc:@pixel_cls/score_from_fc7/biases"
      }
    }
  }
  attr {
    key: "_output_shapes"
    value {
      list {
        shape {
        }
      }
    }
  }
  attr {
    key: "dtype"
    value {
      type: DT_FLOAT
    }
  }
}
node {
  name: "init_ops/report_uninitialized_variables/IsVariableInitialized_125"
  op: "IsVariableInitialized"
  input: "pixel_cls/score_from_conv5_3/weights/ExponentialMovingAverage"
  device: "/device:GPU:0"
  attr {
    key: "_class"
    value {
      list {
        s: "loc:@pixel_cls/score_from_conv5_3/weights"
      }
    }
  }
  attr {
    key: "_output_shapes"
    value {
      list {
        shape {
        }
      }
    }
  }
  attr {
    key: "dtype"
    value {
      type: DT_FLOAT
    }
  }
}
node {
  name: "init_ops/report_uninitialized_variables/IsVariableInitialized_126"
  op: "IsVariableInitialized"
  input: "pixel_cls/score_from_conv5_3/biases/ExponentialMovingAverage"
  device: "/device:GPU:0"
  attr {
    key: "_class"
    value {
      list {
        s: "loc:@pixel_cls/score_from_conv5_3/biases"
      }
    }
  }
  attr {
    key: "_output_shapes"
    value {
      list {
        shape {
        }
      }
    }
  }
  attr {
    key: "dtype"
    value {
      type: DT_FLOAT
    }
  }
}
node {
  name: "init_ops/report_uninitialized_variables/IsVariableInitialized_127"
  op: "IsVariableInitialized"
  input: "pixel_cls/score_from_conv4_3/weights/ExponentialMovingAverage"
  device: "/device:GPU:0"
  attr {
    key: "_class"
    value {
      list {
        s: "loc:@pixel_cls/score_from_conv4_3/weights"
      }
    }
  }
  attr {
    key: "_output_shapes"
    value {
      list {
        shape {
        }
      }
    }
  }
  attr {
    key: "dtype"
    value {
      type: DT_FLOAT
    }
  }
}
node {
  name: "init_ops/report_uninitialized_variables/IsVariableInitialized_128"
  op: "IsVariableInitialized"
  input: "pixel_cls/score_from_conv4_3/biases/ExponentialMovingAverage"
  device: "/device:GPU:0"
  attr {
    key: "_class"
    value {
      list {
        s: "loc:@pixel_cls/score_from_conv4_3/biases"
      }
    }
  }
  attr {
    key: "_output_shapes"
    value {
      list {
        shape {
        }
      }
    }
  }
  attr {
    key: "dtype"
    value {
      type: DT_FLOAT
    }
  }
}
node {
  name: "init_ops/report_uninitialized_variables/IsVariableInitialized_129"
  op: "IsVariableInitialized"
  input: "pixel_cls/score_from_conv3_3/weights/ExponentialMovingAverage"
  device: "/device:GPU:0"
  attr {
    key: "_class"
    value {
      list {
        s: "loc:@pixel_cls/score_from_conv3_3/weights"
      }
    }
  }
  attr {
    key: "_output_shapes"
    value {
      list {
        shape {
        }
      }
    }
  }
  attr {
    key: "dtype"
    value {
      type: DT_FLOAT
    }
  }
}
node {
  name: "init_ops/report_uninitialized_variables/IsVariableInitialized_130"
  op: "IsVariableInitialized"
  input: "pixel_cls/score_from_conv3_3/biases/ExponentialMovingAverage"
  device: "/device:GPU:0"
  attr {
    key: "_class"
    value {
      list {
        s: "loc:@pixel_cls/score_from_conv3_3/biases"
      }
    }
  }
  attr {
    key: "_output_shapes"
    value {
      list {
        shape {
        }
      }
    }
  }
  attr {
    key: "dtype"
    value {
      type: DT_FLOAT
    }
  }
}
node {
  name: "init_ops/report_uninitialized_variables/IsVariableInitialized_131"
  op: "IsVariableInitialized"
  input: "pixel_link/score_from_fc7/weights/ExponentialMovingAverage"
  device: "/device:GPU:0"
  attr {
    key: "_class"
    value {
      list {
        s: "loc:@pixel_link/score_from_fc7/weights"
      }
    }
  }
  attr {
    key: "_output_shapes"
    value {
      list {
        shape {
        }
      }
    }
  }
  attr {
    key: "dtype"
    value {
      type: DT_FLOAT
    }
  }
}
node {
  name: "init_ops/report_uninitialized_variables/IsVariableInitialized_132"
  op: "IsVariableInitialized"
  input: "pixel_link/score_from_fc7/biases/ExponentialMovingAverage"
  device: "/device:GPU:0"
  attr {
    key: "_class"
    value {
      list {
        s: "loc:@pixel_link/score_from_fc7/biases"
      }
    }
  }
  attr {
    key: "_output_shapes"
    value {
      list {
        shape {
        }
      }
    }
  }
  attr {
    key: "dtype"
    value {
      type: DT_FLOAT
    }
  }
}
node {
  name: "init_ops/report_uninitialized_variables/IsVariableInitialized_133"
  op: "IsVariableInitialized"
  input: "pixel_link/score_from_conv5_3/weights/ExponentialMovingAverage"
  device: "/device:GPU:0"
  attr {
    key: "_class"
    value {
      list {
        s: "loc:@pixel_link/score_from_conv5_3/weights"
      }
    }
  }
  attr {
    key: "_output_shapes"
    value {
      list {
        shape {
        }
      }
    }
  }
  attr {
    key: "dtype"
    value {
      type: DT_FLOAT
    }
  }
}
node {
  name: "init_ops/report_uninitialized_variables/IsVariableInitialized_134"
  op: "IsVariableInitialized"
  input: "pixel_link/score_from_conv5_3/biases/ExponentialMovingAverage"
  device: "/device:GPU:0"
  attr {
    key: "_class"
    value {
      list {
        s: "loc:@pixel_link/score_from_conv5_3/biases"
      }
    }
  }
  attr {
    key: "_output_shapes"
    value {
      list {
        shape {
        }
      }
    }
  }
  attr {
    key: "dtype"
    value {
      type: DT_FLOAT
    }
  }
}
node {
  name: "init_ops/report_uninitialized_variables/IsVariableInitialized_135"
  op: "IsVariableInitialized"
  input: "pixel_link/score_from_conv4_3/weights/ExponentialMovingAverage"
  device: "/device:GPU:0"
  attr {
    key: "_class"
    value {
      list {
        s: "loc:@pixel_link/score_from_conv4_3/weights"
      }
    }
  }
  attr {
    key: "_output_shapes"
    value {
      list {
        shape {
        }
      }
    }
  }
  attr {
    key: "dtype"
    value {
      type: DT_FLOAT
    }
  }
}
node {
  name: "init_ops/report_uninitialized_variables/IsVariableInitialized_136"
  op: "IsVariableInitialized"
  input: "pixel_link/score_from_conv4_3/biases/ExponentialMovingAverage"
  device: "/device:GPU:0"
  attr {
    key: "_class"
    value {
      list {
        s: "loc:@pixel_link/score_from_conv4_3/biases"
      }
    }
  }
  attr {
    key: "_output_shapes"
    value {
      list {
        shape {
        }
      }
    }
  }
  attr {
    key: "dtype"
    value {
      type: DT_FLOAT
    }
  }
}
node {
  name: "init_ops/report_uninitialized_variables/IsVariableInitialized_137"
  op: "IsVariableInitialized"
  input: "pixel_link/score_from_conv3_3/weights/ExponentialMovingAverage"
  device: "/device:GPU:0"
  attr {
    key: "_class"
    value {
      list {
        s: "loc:@pixel_link/score_from_conv3_3/weights"
      }
    }
  }
  attr {
    key: "_output_shapes"
    value {
      list {
        shape {
        }
      }
    }
  }
  attr {
    key: "dtype"
    value {
      type: DT_FLOAT
    }
  }
}
node {
  name: "init_ops/report_uninitialized_variables/IsVariableInitialized_138"
  op: "IsVariableInitialized"
  input: "pixel_link/score_from_conv3_3/biases/ExponentialMovingAverage"
  device: "/device:GPU:0"
  attr {
    key: "_class"
    value {
      list {
        s: "loc:@pixel_link/score_from_conv3_3/biases"
      }
    }
  }
  attr {
    key: "_output_shapes"
    value {
      list {
        shape {
        }
      }
    }
  }
  attr {
    key: "dtype"
    value {
      type: DT_FLOAT
    }
  }
}
node {
  name: "init_ops/report_uninitialized_variables/IsVariableInitialized_139"
  op: "IsVariableInitialized"
  input: "count_warning"
  device: "/device:GPU:0"
  attr {
    key: "_class"
    value {
      list {
        s: "loc:@count_warning"
      }
    }
  }
  attr {
    key: "_output_shapes"
    value {
      list {
        shape {
        }
      }
    }
  }
  attr {
    key: "dtype"
    value {
      type: DT_FLOAT
    }
  }
}
node {
  name: "init_ops/report_uninitialized_variables/stack"
  op: "Pack"
  input: "init_ops/report_uninitialized_variables/IsVariableInitialized"
  input: "init_ops/report_uninitialized_variables/IsVariableInitialized_1"
  input: "init_ops/report_uninitialized_variables/IsVariableInitialized_2"
  input: "init_ops/report_uninitialized_variables/IsVariableInitialized_3"
  input: "init_ops/report_uninitialized_variables/IsVariableInitialized_4"
  input: "init_ops/report_uninitialized_variables/IsVariableInitialized_5"
  input: "init_ops/report_uninitialized_variables/IsVariableInitialized_6"
  input: "init_ops/report_uninitialized_variables/IsVariableInitialized_7"
  input: "init_ops/report_uninitialized_variables/IsVariableInitialized_8"
  input: "init_ops/report_uninitialized_variables/IsVariableInitialized_9"
  input: "init_ops/report_uninitialized_variables/IsVariableInitialized_10"
  input: "init_ops/report_uninitialized_variables/IsVariableInitialized_11"
  input: "init_ops/report_uninitialized_variables/IsVariableInitialized_12"
  input: "init_ops/report_uninitialized_variables/IsVariableInitialized_13"
  input: "init_ops/report_uninitialized_variables/IsVariableInitialized_14"
  input: "init_ops/report_uninitialized_variables/IsVariableInitialized_15"
  input: "init_ops/report_uninitialized_variables/IsVariableInitialized_16"
  input: "init_ops/report_uninitialized_variables/IsVariableInitialized_17"
  input: "init_ops/report_uninitialized_variables/IsVariableInitialized_18"
  input: "init_ops/report_uninitialized_variables/IsVariableInitialized_19"
  input: "init_ops/report_uninitialized_variables/IsVariableInitialized_20"
  input: "init_ops/report_uninitialized_variables/IsVariableInitialized_21"
  input: "init_ops/report_uninitialized_variables/IsVariableInitialized_22"
  input: "init_ops/report_uninitialized_variables/IsVariableInitialized_23"
  input: "init_ops/report_uninitialized_variables/IsVariableInitialized_24"
  input: "init_ops/report_uninitialized_variables/IsVariableInitialized_25"
  input: "init_ops/report_uninitialized_variables/IsVariableInitialized_26"
  input: "init_ops/report_uninitialized_variables/IsVariableInitialized_27"
  input: "init_ops/report_uninitialized_variables/IsVariableInitialized_28"
  input: "init_ops/report_uninitialized_variables/IsVariableInitialized_29"
  input: "init_ops/report_uninitialized_variables/IsVariableInitialized_30"
  input: "init_ops/report_uninitialized_variables/IsVariableInitialized_31"
  input: "init_ops/report_uninitialized_variables/IsVariableInitialized_32"
  input: "init_ops/report_uninitialized_variables/IsVariableInitialized_33"
  input: "init_ops/report_uninitialized_variables/IsVariableInitialized_34"
  input: "init_ops/report_uninitialized_variables/IsVariableInitialized_35"
  input: "init_ops/report_uninitialized_variables/IsVariableInitialized_36"
  input: "init_ops/report_uninitialized_variables/IsVariableInitialized_37"
  input: "init_ops/report_uninitialized_variables/IsVariableInitialized_38"
  input: "init_ops/report_uninitialized_variables/IsVariableInitialized_39"
  input: "init_ops/report_uninitialized_variables/IsVariableInitialized_40"
  input: "init_ops/report_uninitialized_variables/IsVariableInitialized_41"
  input: "init_ops/report_uninitialized_variables/IsVariableInitialized_42"
  input: "init_ops/report_uninitialized_variables/IsVariableInitialized_43"
  input: "init_ops/report_uninitialized_variables/IsVariableInitialized_44"
  input: "init_ops/report_uninitialized_variables/IsVariableInitialized_45"
  input: "init_ops/report_uninitialized_variables/IsVariableInitialized_46"
  input: "init_ops/report_uninitialized_variables/IsVariableInitialized_47"
  input: "init_ops/report_uninitialized_variables/IsVariableInitialized_48"
  input: "init_ops/report_uninitialized_variables/IsVariableInitialized_49"
  input: "init_ops/report_uninitialized_variables/IsVariableInitialized_50"
  input: "init_ops/report_uninitialized_variables/IsVariableInitialized_51"
  input: "init_ops/report_uninitialized_variables/IsVariableInitialized_52"
  input: "init_ops/report_uninitialized_variables/IsVariableInitialized_53"
  input: "init_ops/report_uninitialized_variables/IsVariableInitialized_54"
  input: "init_ops/report_uninitialized_variables/IsVariableInitialized_55"
  input: "init_ops/report_uninitialized_variables/IsVariableInitialized_56"
  input: "init_ops/report_uninitialized_variables/IsVariableInitialized_57"
  input: "init_ops/report_uninitialized_variables/IsVariableInitialized_58"
  input: "init_ops/report_uninitialized_variables/IsVariableInitialized_59"
  input: "init_ops/report_uninitialized_variables/IsVariableInitialized_60"
  input: "init_ops/report_uninitialized_variables/IsVariableInitialized_61"
  input: "init_ops/report_uninitialized_variables/IsVariableInitialized_62"
  input: "init_ops/report_uninitialized_variables/IsVariableInitialized_63"
  input: "init_ops/report_uninitialized_variables/IsVariableInitialized_64"
  input: "init_ops/report_uninitialized_variables/IsVariableInitialized_65"
  input: "init_ops/report_uninitialized_variables/IsVariableInitialized_66"
  input: "init_ops/report_uninitialized_variables/IsVariableInitialized_67"
  input: "init_ops/report_uninitialized_variables/IsVariableInitialized_68"
  input: "init_ops/report_uninitialized_variables/IsVariableInitialized_69"
  input: "init_ops/report_uninitialized_variables/IsVariableInitialized_70"
  input: "init_ops/report_uninitialized_variables/IsVariableInitialized_71"
  input: "init_ops/report_uninitialized_variables/IsVariableInitialized_72"
  input: "init_ops/report_uninitialized_variables/IsVariableInitialized_73"
  input: "init_ops/report_uninitialized_variables/IsVariableInitialized_74"
  input: "init_ops/report_uninitialized_variables/IsVariableInitialized_75"
  input: "init_ops/report_uninitialized_variables/IsVariableInitialized_76"
  input: "init_ops/report_uninitialized_variables/IsVariableInitialized_77"
  input: "init_ops/report_uninitialized_variables/IsVariableInitialized_78"
  input: "init_ops/report_uninitialized_variables/IsVariableInitialized_79"
  input: "init_ops/report_uninitialized_variables/IsVariableInitialized_80"
  input: "init_ops/report_uninitialized_variables/IsVariableInitialized_81"
  input: "init_ops/report_uninitialized_variables/IsVariableInitialized_82"
  input: "init_ops/report_uninitialized_variables/IsVariableInitialized_83"
  input: "init_ops/report_uninitialized_variables/IsVariableInitialized_84"
  input: "init_ops/report_uninitialized_variables/IsVariableInitialized_85"
  input: "init_ops/report_uninitialized_variables/IsVariableInitialized_86"
  input: "init_ops/report_uninitialized_variables/IsVariableInitialized_87"
  input: "init_ops/report_uninitialized_variables/IsVariableInitialized_88"
  input: "init_ops/report_uninitialized_variables/IsVariableInitialized_89"
  input: "init_ops/report_uninitialized_variables/IsVariableInitialized_90"
  input: "init_ops/report_uninitialized_variables/IsVariableInitialized_91"
  input: "init_ops/report_uninitialized_variables/IsVariableInitialized_92"
  input: "init_ops/report_uninitialized_variables/IsVariableInitialized_93"
  input: "init_ops/report_uninitialized_variables/IsVariableInitialized_94"
  input: "init_ops/report_uninitialized_variables/IsVariableInitialized_95"
  input: "init_ops/report_uninitialized_variables/IsVariableInitialized_96"
  input: "init_ops/report_uninitialized_variables/IsVariableInitialized_97"
  input: "init_ops/report_uninitialized_variables/IsVariableInitialized_98"
  input: "init_ops/report_uninitialized_variables/IsVariableInitialized_99"
  input: "init_ops/report_uninitialized_variables/IsVariableInitialized_100"
  input: "init_ops/report_uninitialized_variables/IsVariableInitialized_101"
  input: "init_ops/report_uninitialized_variables/IsVariableInitialized_102"
  input: "init_ops/report_uninitialized_variables/IsVariableInitialized_103"
  input: "init_ops/report_uninitialized_variables/IsVariableInitialized_104"
  input: "init_ops/report_uninitialized_variables/IsVariableInitialized_105"
  input: "init_ops/report_uninitialized_variables/IsVariableInitialized_106"
  input: "init_ops/report_uninitialized_variables/IsVariableInitialized_107"
  input: "init_ops/report_uninitialized_variables/IsVariableInitialized_108"
  input: "init_ops/report_uninitialized_variables/IsVariableInitialized_109"
  input: "init_ops/report_uninitialized_variables/IsVariableInitialized_110"
  input: "init_ops/report_uninitialized_variables/IsVariableInitialized_111"
  input: "init_ops/report_uninitialized_variables/IsVariableInitialized_112"
  input: "init_ops/report_uninitialized_variables/IsVariableInitialized_113"
  input: "init_ops/report_uninitialized_variables/IsVariableInitialized_114"
  input: "init_ops/report_uninitialized_variables/IsVariableInitialized_115"
  input: "init_ops/report_uninitialized_variables/IsVariableInitialized_116"
  input: "init_ops/report_uninitialized_variables/IsVariableInitialized_117"
  input: "init_ops/report_uninitialized_variables/IsVariableInitialized_118"
  input: "init_ops/report_uninitialized_variables/IsVariableInitialized_119"
  input: "init_ops/report_uninitialized_variables/IsVariableInitialized_120"
  input: "init_ops/report_uninitialized_variables/IsVariableInitialized_121"
  input: "init_ops/report_uninitialized_variables/IsVariableInitialized_122"
  input: "init_ops/report_uninitialized_variables/IsVariableInitialized_123"
  input: "init_ops/report_uninitialized_variables/IsVariableInitialized_124"
  input: "init_ops/report_uninitialized_variables/IsVariableInitialized_125"
  input: "init_ops/report_uninitialized_variables/IsVariableInitialized_126"
  input: "init_ops/report_uninitialized_variables/IsVariableInitialized_127"
  input: "init_ops/report_uninitialized_variables/IsVariableInitialized_128"
  input: "init_ops/report_uninitialized_variables/IsVariableInitialized_129"
  input: "init_ops/report_uninitialized_variables/IsVariableInitialized_130"
  input: "init_ops/report_uninitialized_variables/IsVariableInitialized_131"
  input: "init_ops/report_uninitialized_variables/IsVariableInitialized_132"
  input: "init_ops/report_uninitialized_variables/IsVariableInitialized_133"
  input: "init_ops/report_uninitialized_variables/IsVariableInitialized_134"
  input: "init_ops/report_uninitialized_variables/IsVariableInitialized_135"
  input: "init_ops/report_uninitialized_variables/IsVariableInitialized_136"
  input: "init_ops/report_uninitialized_variables/IsVariableInitialized_137"
  input: "init_ops/report_uninitialized_variables/IsVariableInitialized_138"
  input: "init_ops/report_uninitialized_variables/IsVariableInitialized_139"
  device: "/device:CPU:0"
  attr {
    key: "N"
    value {
      i: 140
    }
  }
  attr {
    key: "T"
    value {
      type: DT_BOOL
    }
  }
  attr {
    key: "_output_shapes"
    value {
      list {
        shape {
          dim {
            size: 140
          }
        }
      }
    }
  }
  attr {
    key: "axis"
    value {
      i: 0
    }
  }
}
node {
  name: "init_ops/report_uninitialized_variables/LogicalNot"
  op: "LogicalNot"
  input: "init_ops/report_uninitialized_variables/stack"
  device: "/device:CPU:0"
  attr {
    key: "_output_shapes"
    value {
      list {
        shape {
          dim {
            size: 140
          }
        }
      }
    }
  }
}
node {
  name: "init_ops/report_uninitialized_variables/Const"
  op: "Const"
  device: "/device:CPU:0"
  attr {
    key: "_output_shapes"
    value {
      list {
        shape {
          dim {
            size: 140
          }
        }
      }
    }
  }
  attr {
    key: "dtype"
    value {
      type: DT_STRING
    }
  }
  attr {
    key: "value"
    value {
      tensor {
        dtype: DT_STRING
        tensor_shape {
          dim {
            size: 140
          }
        }
        string_val: "global_step"
        string_val: "conv1/conv1_1/weights"
        string_val: "conv1/conv1_1/biases"
        string_val: "conv1/conv1_2/weights"
        string_val: "conv1/conv1_2/biases"
        string_val: "conv2/conv2_1/weights"
        string_val: "conv2/conv2_1/biases"
        string_val: "conv2/conv2_2/weights"
        string_val: "conv2/conv2_2/biases"
        string_val: "conv3/conv3_1/weights"
        string_val: "conv3/conv3_1/biases"
        string_val: "conv3/conv3_2/weights"
        string_val: "conv3/conv3_2/biases"
        string_val: "conv3/conv3_3/weights"
        string_val: "conv3/conv3_3/biases"
        string_val: "conv4/conv4_1/weights"
        string_val: "conv4/conv4_1/biases"
        string_val: "conv4/conv4_2/weights"
        string_val: "conv4/conv4_2/biases"
        string_val: "conv4/conv4_3/weights"
        string_val: "conv4/conv4_3/biases"
        string_val: "conv5/conv5_1/weights"
        string_val: "conv5/conv5_1/biases"
        string_val: "conv5/conv5_2/weights"
        string_val: "conv5/conv5_2/biases"
        string_val: "conv5/conv5_3/weights"
        string_val: "conv5/conv5_3/biases"
        string_val: "fc6/weights"
        string_val: "fc6/biases"
        string_val: "fc7/weights"
        string_val: "fc7/biases"
        string_val: "pixel_cls/score_from_fc7/weights"
        string_val: "pixel_cls/score_from_fc7/biases"
        string_val: "pixel_cls/score_from_conv5_3/weights"
        string_val: "pixel_cls/score_from_conv5_3/biases"
        string_val: "pixel_cls/score_from_conv4_3/weights"
        string_val: "pixel_cls/score_from_conv4_3/biases"
        string_val: "pixel_cls/score_from_conv3_3/weights"
        string_val: "pixel_cls/score_from_conv3_3/biases"
        string_val: "pixel_link/score_from_fc7/weights"
        string_val: "pixel_link/score_from_fc7/biases"
        string_val: "pixel_link/score_from_conv5_3/weights"
        string_val: "pixel_link/score_from_conv5_3/biases"
        string_val: "pixel_link/score_from_conv4_3/weights"
        string_val: "pixel_link/score_from_conv4_3/biases"
        string_val: "pixel_link/score_from_conv3_3/weights"
        string_val: "pixel_link/score_from_conv3_3/biases"
        string_val: "conv1/conv1_1/weights/Momentum"
        string_val: "conv1/conv1_1/biases/Momentum"
        string_val: "conv1/conv1_2/weights/Momentum"
        string_val: "conv1/conv1_2/biases/Momentum"
        string_val: "conv2/conv2_1/weights/Momentum"
        string_val: "conv2/conv2_1/biases/Momentum"
        string_val: "conv2/conv2_2/weights/Momentum"
        string_val: "conv2/conv2_2/biases/Momentum"
        string_val: "conv3/conv3_1/weights/Momentum"
        string_val: "conv3/conv3_1/biases/Momentum"
        string_val: "conv3/conv3_2/weights/Momentum"
        string_val: "conv3/conv3_2/biases/Momentum"
        string_val: "conv3/conv3_3/weights/Momentum"
        string_val: "conv3/conv3_3/biases/Momentum"
        string_val: "conv4/conv4_1/weights/Momentum"
        string_val: "conv4/conv4_1/biases/Momentum"
        string_val: "conv4/conv4_2/weights/Momentum"
        string_val: "conv4/conv4_2/biases/Momentum"
        string_val: "conv4/conv4_3/weights/Momentum"
        string_val: "conv4/conv4_3/biases/Momentum"
        string_val: "conv5/conv5_1/weights/Momentum"
        string_val: "conv5/conv5_1/biases/Momentum"
        string_val: "conv5/conv5_2/weights/Momentum"
        string_val: "conv5/conv5_2/biases/Momentum"
        string_val: "conv5/conv5_3/weights/Momentum"
        string_val: "conv5/conv5_3/biases/Momentum"
        string_val: "fc6/weights/Momentum"
        string_val: "fc6/biases/Momentum"
        string_val: "fc7/weights/Momentum"
        string_val: "fc7/biases/Momentum"
        string_val: "pixel_cls/score_from_fc7/weights/Momentum"
        string_val: "pixel_cls/score_from_fc7/biases/Momentum"
        string_val: "pixel_cls/score_from_conv5_3/weights/Momentum"
        string_val: "pixel_cls/score_from_conv5_3/biases/Momentum"
        string_val: "pixel_cls/score_from_conv4_3/weights/Momentum"
        string_val: "pixel_cls/score_from_conv4_3/biases/Momentum"
        string_val: "pixel_cls/score_from_conv3_3/weights/Momentum"
        string_val: "pixel_cls/score_from_conv3_3/biases/Momentum"
        string_val: "pixel_link/score_from_fc7/weights/Momentum"
        string_val: "pixel_link/score_from_fc7/biases/Momentum"
        string_val: "pixel_link/score_from_conv5_3/weights/Momentum"
        string_val: "pixel_link/score_from_conv5_3/biases/Momentum"
        string_val: "pixel_link/score_from_conv4_3/weights/Momentum"
        string_val: "pixel_link/score_from_conv4_3/biases/Momentum"
        string_val: "pixel_link/score_from_conv3_3/weights/Momentum"
        string_val: "pixel_link/score_from_conv3_3/biases/Momentum"
        string_val: "conv1/conv1_1/weights/ExponentialMovingAverage"
        string_val: "conv1/conv1_1/biases/ExponentialMovingAverage"
        string_val: "conv1/conv1_2/weights/ExponentialMovingAverage"
        string_val: "conv1/conv1_2/biases/ExponentialMovingAverage"
        string_val: "conv2/conv2_1/weights/ExponentialMovingAverage"
        string_val: "conv2/conv2_1/biases/ExponentialMovingAverage"
        string_val: "conv2/conv2_2/weights/ExponentialMovingAverage"
        string_val: "conv2/conv2_2/biases/ExponentialMovingAverage"
        string_val: "conv3/conv3_1/weights/ExponentialMovingAverage"
        string_val: "conv3/conv3_1/biases/ExponentialMovingAverage"
        string_val: "conv3/conv3_2/weights/ExponentialMovingAverage"
        string_val: "conv3/conv3_2/biases/ExponentialMovingAverage"
        string_val: "conv3/conv3_3/weights/ExponentialMovingAverage"
        string_val: "conv3/conv3_3/biases/ExponentialMovingAverage"
        string_val: "conv4/conv4_1/weights/ExponentialMovingAverage"
        string_val: "conv4/conv4_1/biases/ExponentialMovingAverage"
        string_val: "conv4/conv4_2/weights/ExponentialMovingAverage"
        string_val: "conv4/conv4_2/biases/ExponentialMovingAverage"
        string_val: "conv4/conv4_3/weights/ExponentialMovingAverage"
        string_val: "conv4/conv4_3/biases/ExponentialMovingAverage"
        string_val: "conv5/conv5_1/weights/ExponentialMovingAverage"
        string_val: "conv5/conv5_1/biases/ExponentialMovingAverage"
        string_val: "conv5/conv5_2/weights/ExponentialMovingAverage"
        string_val: "conv5/conv5_2/biases/ExponentialMovingAverage"
        string_val: "conv5/conv5_3/weights/ExponentialMovingAverage"
        string_val: "conv5/conv5_3/biases/ExponentialMovingAverage"
        string_val: "fc6/weights/ExponentialMovingAverage"
        string_val: "fc6/biases/ExponentialMovingAverage"
        string_val: "fc7/weights/ExponentialMovingAverage"
        string_val: "fc7/biases/ExponentialMovingAverage"
        string_val: "pixel_cls/score_from_fc7/weights/ExponentialMovingAverage"
        string_val: "pixel_cls/score_from_fc7/biases/ExponentialMovingAverage"
        string_val: "pixel_cls/score_from_conv5_3/weights/ExponentialMovingAverage"
        string_val: "pixel_cls/score_from_conv5_3/biases/ExponentialMovingAverage"
        string_val: "pixel_cls/score_from_conv4_3/weights/ExponentialMovingAverage"
        string_val: "pixel_cls/score_from_conv4_3/biases/ExponentialMovingAverage"
        string_val: "pixel_cls/score_from_conv3_3/weights/ExponentialMovingAverage"
        string_val: "pixel_cls/score_from_conv3_3/biases/ExponentialMovingAverage"
        string_val: "pixel_link/score_from_fc7/weights/ExponentialMovingAverage"
        string_val: "pixel_link/score_from_fc7/biases/ExponentialMovingAverage"
        string_val: "pixel_link/score_from_conv5_3/weights/ExponentialMovingAverage"
        string_val: "pixel_link/score_from_conv5_3/biases/ExponentialMovingAverage"
        string_val: "pixel_link/score_from_conv4_3/weights/ExponentialMovingAverage"
        string_val: "pixel_link/score_from_conv4_3/biases/ExponentialMovingAverage"
        string_val: "pixel_link/score_from_conv3_3/weights/ExponentialMovingAverage"
        string_val: "pixel_link/score_from_conv3_3/biases/ExponentialMovingAverage"
        string_val: "count_warning"
      }
    }
  }
}
node {
  name: "init_ops/report_uninitialized_variables/boolean_mask/Shape"
  op: "Const"
  device: "/device:CPU:0"
  attr {
    key: "_output_shapes"
    value {
      list {
        shape {
          dim {
            size: 1
          }
        }
      }
    }
  }
  attr {
    key: "dtype"
    value {
      type: DT_INT32
    }
  }
  attr {
    key: "value"
    value {
      tensor {
        dtype: DT_INT32
        tensor_shape {
          dim {
            size: 1
          }
        }
        int_val: 140
      }
    }
  }
}
node {
  name: "init_ops/report_uninitialized_variables/boolean_mask/strided_slice/stack"
  op: "Const"
  device: "/device:CPU:0"
  attr {
    key: "_output_shapes"
    value {
      list {
        shape {
          dim {
            size: 1
          }
        }
      }
    }
  }
  attr {
    key: "dtype"
    value {
      type: DT_INT32
    }
  }
  attr {
    key: "value"
    value {
      tensor {
        dtype: DT_INT32
        tensor_shape {
          dim {
            size: 1
          }
        }
        int_val: 0
      }
    }
  }
}
node {
  name: "init_ops/report_uninitialized_variables/boolean_mask/strided_slice/stack_1"
  op: "Const"
  device: "/device:CPU:0"
  attr {
    key: "_output_shapes"
    value {
      list {
        shape {
          dim {
            size: 1
          }
        }
      }
    }
  }
  attr {
    key: "dtype"
    value {
      type: DT_INT32
    }
  }
  attr {
    key: "value"
    value {
      tensor {
        dtype: DT_INT32
        tensor_shape {
          dim {
            size: 1
          }
        }
        int_val: 1
      }
    }
  }
}
node {
  name: "init_ops/report_uninitialized_variables/boolean_mask/strided_slice/stack_2"
  op: "Const"
  device: "/device:CPU:0"
  attr {
    key: "_output_shapes"
    value {
      list {
        shape {
          dim {
            size: 1
          }
        }
      }
    }
  }
  attr {
    key: "dtype"
    value {
      type: DT_INT32
    }
  }
  attr {
    key: "value"
    value {
      tensor {
        dtype: DT_INT32
        tensor_shape {
          dim {
            size: 1
          }
        }
        int_val: 1
      }
    }
  }
}
node {
  name: "init_ops/report_uninitialized_variables/boolean_mask/strided_slice"
  op: "StridedSlice"
  input: "init_ops/report_uninitialized_variables/boolean_mask/Shape"
  input: "init_ops/report_uninitialized_variables/boolean_mask/strided_slice/stack"
  input: "init_ops/report_uninitialized_variables/boolean_mask/strided_slice/stack_1"
  input: "init_ops/report_uninitialized_variables/boolean_mask/strided_slice/stack_2"
  device: "/device:CPU:0"
  attr {
    key: "Index"
    value {
      type: DT_INT32
    }
  }
  attr {
    key: "T"
    value {
      type: DT_INT32
    }
  }
  attr {
    key: "_output_shapes"
    value {
      list {
        shape {
          dim {
            size: 1
          }
        }
      }
    }
  }
  attr {
    key: "begin_mask"
    value {
      i: 0
    }
  }
  attr {
    key: "ellipsis_mask"
    value {
      i: 0
    }
  }
  attr {
    key: "end_mask"
    value {
      i: 0
    }
  }
  attr {
    key: "new_axis_mask"
    value {
      i: 0
    }
  }
  attr {
    key: "shrink_axis_mask"
    value {
      i: 0
    }
  }
}
node {
  name: "init_ops/report_uninitialized_variables/boolean_mask/Prod/reduction_indices"
  op: "Const"
  device: "/device:CPU:0"
  attr {
    key: "_output_shapes"
    value {
      list {
        shape {
          dim {
            size: 1
          }
        }
      }
    }
  }
  attr {
    key: "dtype"
    value {
      type: DT_INT32
    }
  }
  attr {
    key: "value"
    value {
      tensor {
        dtype: DT_INT32
        tensor_shape {
          dim {
            size: 1
          }
        }
        int_val: 0
      }
    }
  }
}
node {
  name: "init_ops/report_uninitialized_variables/boolean_mask/Prod"
  op: "Prod"
  input: "init_ops/report_uninitialized_variables/boolean_mask/strided_slice"
  input: "init_ops/report_uninitialized_variables/boolean_mask/Prod/reduction_indices"
  device: "/device:CPU:0"
  attr {
    key: "T"
    value {
      type: DT_INT32
    }
  }
  attr {
    key: "Tidx"
    value {
      type: DT_INT32
    }
  }
  attr {
    key: "_output_shapes"
    value {
      list {
        shape {
        }
      }
    }
  }
  attr {
    key: "keep_dims"
    value {
      b: false
    }
  }
}
node {
  name: "init_ops/report_uninitialized_variables/boolean_mask/Shape_1"
  op: "Const"
  device: "/device:CPU:0"
  attr {
    key: "_output_shapes"
    value {
      list {
        shape {
          dim {
            size: 1
          }
        }
      }
    }
  }
  attr {
    key: "dtype"
    value {
      type: DT_INT32
    }
  }
  attr {
    key: "value"
    value {
      tensor {
        dtype: DT_INT32
        tensor_shape {
          dim {
            size: 1
          }
        }
        int_val: 140
      }
    }
  }
}
node {
  name: "init_ops/report_uninitialized_variables/boolean_mask/strided_slice_1/stack"
  op: "Const"
  device: "/device:CPU:0"
  attr {
    key: "_output_shapes"
    value {
      list {
        shape {
          dim {
            size: 1
          }
        }
      }
    }
  }
  attr {
    key: "dtype"
    value {
      type: DT_INT32
    }
  }
  attr {
    key: "value"
    value {
      tensor {
        dtype: DT_INT32
        tensor_shape {
          dim {
            size: 1
          }
        }
        int_val: 0
      }
    }
  }
}
node {
  name: "init_ops/report_uninitialized_variables/boolean_mask/strided_slice_1/stack_1"
  op: "Const"
  device: "/device:CPU:0"
  attr {
    key: "_output_shapes"
    value {
      list {
        shape {
          dim {
            size: 1
          }
        }
      }
    }
  }
  attr {
    key: "dtype"
    value {
      type: DT_INT32
    }
  }
  attr {
    key: "value"
    value {
      tensor {
        dtype: DT_INT32
        tensor_shape {
          dim {
            size: 1
          }
        }
        int_val: 0
      }
    }
  }
}
node {
  name: "init_ops/report_uninitialized_variables/boolean_mask/strided_slice_1/stack_2"
  op: "Const"
  device: "/device:CPU:0"
  attr {
    key: "_output_shapes"
    value {
      list {
        shape {
          dim {
            size: 1
          }
        }
      }
    }
  }
  attr {
    key: "dtype"
    value {
      type: DT_INT32
    }
  }
  attr {
    key: "value"
    value {
      tensor {
        dtype: DT_INT32
        tensor_shape {
          dim {
            size: 1
          }
        }
        int_val: 1
      }
    }
  }
}
node {
  name: "init_ops/report_uninitialized_variables/boolean_mask/strided_slice_1"
  op: "StridedSlice"
  input: "init_ops/report_uninitialized_variables/boolean_mask/Shape_1"
  input: "init_ops/report_uninitialized_variables/boolean_mask/strided_slice_1/stack"
  input: "init_ops/report_uninitialized_variables/boolean_mask/strided_slice_1/stack_1"
  input: "init_ops/report_uninitialized_variables/boolean_mask/strided_slice_1/stack_2"
  device: "/device:CPU:0"
  attr {
    key: "Index"
    value {
      type: DT_INT32
    }
  }
  attr {
    key: "T"
    value {
      type: DT_INT32
    }
  }
  attr {
    key: "_output_shapes"
    value {
      list {
        shape {
          dim {
          }
        }
      }
    }
  }
  attr {
    key: "begin_mask"
    value {
      i: 1
    }
  }
  attr {
    key: "ellipsis_mask"
    value {
      i: 0
    }
  }
  attr {
    key: "end_mask"
    value {
      i: 0
    }
  }
  attr {
    key: "new_axis_mask"
    value {
      i: 0
    }
  }
  attr {
    key: "shrink_axis_mask"
    value {
      i: 0
    }
  }
}
node {
  name: "init_ops/report_uninitialized_variables/boolean_mask/Shape_2"
  op: "Const"
  device: "/device:CPU:0"
  attr {
    key: "_output_shapes"
    value {
      list {
        shape {
          dim {
            size: 1
          }
        }
      }
    }
  }
  attr {
    key: "dtype"
    value {
      type: DT_INT32
    }
  }
  attr {
    key: "value"
    value {
      tensor {
        dtype: DT_INT32
        tensor_shape {
          dim {
            size: 1
          }
        }
        int_val: 140
      }
    }
  }
}
node {
  name: "init_ops/report_uninitialized_variables/boolean_mask/strided_slice_2/stack"
  op: "Const"
  device: "/device:CPU:0"
  attr {
    key: "_output_shapes"
    value {
      list {
        shape {
          dim {
            size: 1
          }
        }
      }
    }
  }
  attr {
    key: "dtype"
    value {
      type: DT_INT32
    }
  }
  attr {
    key: "value"
    value {
      tensor {
        dtype: DT_INT32
        tensor_shape {
          dim {
            size: 1
          }
        }
        int_val: 1
      }
    }
  }
}
node {
  name: "init_ops/report_uninitialized_variables/boolean_mask/strided_slice_2/stack_1"
  op: "Const"
  device: "/device:CPU:0"
  attr {
    key: "_output_shapes"
    value {
      list {
        shape {
          dim {
            size: 1
          }
        }
      }
    }
  }
  attr {
    key: "dtype"
    value {
      type: DT_INT32
    }
  }
  attr {
    key: "value"
    value {
      tensor {
        dtype: DT_INT32
        tensor_shape {
          dim {
            size: 1
          }
        }
        int_val: 0
      }
    }
  }
}
node {
  name: "init_ops/report_uninitialized_variables/boolean_mask/strided_slice_2/stack_2"
  op: "Const"
  device: "/device:CPU:0"
  attr {
    key: "_output_shapes"
    value {
      list {
        shape {
          dim {
            size: 1
          }
        }
      }
    }
  }
  attr {
    key: "dtype"
    value {
      type: DT_INT32
    }
  }
  attr {
    key: "value"
    value {
      tensor {
        dtype: DT_INT32
        tensor_shape {
          dim {
            size: 1
          }
        }
        int_val: 1
      }
    }
  }
}
node {
  name: "init_ops/report_uninitialized_variables/boolean_mask/strided_slice_2"
  op: "StridedSlice"
  input: "init_ops/report_uninitialized_variables/boolean_mask/Shape_2"
  input: "init_ops/report_uninitialized_variables/boolean_mask/strided_slice_2/stack"
  input: "init_ops/report_uninitialized_variables/boolean_mask/strided_slice_2/stack_1"
  input: "init_ops/report_uninitialized_variables/boolean_mask/strided_slice_2/stack_2"
  device: "/device:CPU:0"
  attr {
    key: "Index"
    value {
      type: DT_INT32
    }
  }
  attr {
    key: "T"
    value {
      type: DT_INT32
    }
  }
  attr {
    key: "_output_shapes"
    value {
      list {
        shape {
          dim {
          }
        }
      }
    }
  }
  attr {
    key: "begin_mask"
    value {
      i: 0
    }
  }
  attr {
    key: "ellipsis_mask"
    value {
      i: 0
    }
  }
  attr {
    key: "end_mask"
    value {
      i: 1
    }
  }
  attr {
    key: "new_axis_mask"
    value {
      i: 0
    }
  }
  attr {
    key: "shrink_axis_mask"
    value {
      i: 0
    }
  }
}
node {
  name: "init_ops/report_uninitialized_variables/boolean_mask/concat/values_1"
  op: "Pack"
  input: "init_ops/report_uninitialized_variables/boolean_mask/Prod"
  device: "/device:CPU:0"
  attr {
    key: "N"
    value {
      i: 1
    }
  }
  attr {
    key: "T"
    value {
      type: DT_INT32
    }
  }
  attr {
    key: "_output_shapes"
    value {
      list {
        shape {
          dim {
            size: 1
          }
        }
      }
    }
  }
  attr {
    key: "axis"
    value {
      i: 0
    }
  }
}
node {
  name: "init_ops/report_uninitialized_variables/boolean_mask/concat/axis"
  op: "Const"
  device: "/device:CPU:0"
  attr {
    key: "_output_shapes"
    value {
      list {
        shape {
        }
      }
    }
  }
  attr {
    key: "dtype"
    value {
      type: DT_INT32
    }
  }
  attr {
    key: "value"
    value {
      tensor {
        dtype: DT_INT32
        tensor_shape {
        }
        int_val: 0
      }
    }
  }
}
node {
  name: "init_ops/report_uninitialized_variables/boolean_mask/concat"
  op: "ConcatV2"
  input: "init_ops/report_uninitialized_variables/boolean_mask/strided_slice_1"
  input: "init_ops/report_uninitialized_variables/boolean_mask/concat/values_1"
  input: "init_ops/report_uninitialized_variables/boolean_mask/strided_slice_2"
  input: "init_ops/report_uninitialized_variables/boolean_mask/concat/axis"
  device: "/device:CPU:0"
  attr {
    key: "N"
    value {
      i: 3
    }
  }
  attr {
    key: "T"
    value {
      type: DT_INT32
    }
  }
  attr {
    key: "Tidx"
    value {
      type: DT_INT32
    }
  }
  attr {
    key: "_output_shapes"
    value {
      list {
        shape {
          dim {
            size: 1
          }
        }
      }
    }
  }
}
node {
  name: "init_ops/report_uninitialized_variables/boolean_mask/Reshape"
  op: "Reshape"
  input: "init_ops/report_uninitialized_variables/Const"
  input: "init_ops/report_uninitialized_variables/boolean_mask/concat"
  device: "/device:CPU:0"
  attr {
    key: "T"
    value {
      type: DT_STRING
    }
  }
  attr {
    key: "Tshape"
    value {
      type: DT_INT32
    }
  }
  attr {
    key: "_output_shapes"
    value {
      list {
        shape {
          dim {
            size: 140
          }
        }
      }
    }
  }
}
node {
  name: "init_ops/report_uninitialized_variables/boolean_mask/Reshape_1/shape"
  op: "Const"
  device: "/device:CPU:0"
  attr {
    key: "_output_shapes"
    value {
      list {
        shape {
          dim {
            size: 1
          }
        }
      }
    }
  }
  attr {
    key: "dtype"
    value {
      type: DT_INT32
    }
  }
  attr {
    key: "value"
    value {
      tensor {
        dtype: DT_INT32
        tensor_shape {
          dim {
            size: 1
          }
        }
        int_val: -1
      }
    }
  }
}
node {
  name: "init_ops/report_uninitialized_variables/boolean_mask/Reshape_1"
  op: "Reshape"
  input: "init_ops/report_uninitialized_variables/LogicalNot"
  input: "init_ops/report_uninitialized_variables/boolean_mask/Reshape_1/shape"
  device: "/device:CPU:0"
  attr {
    key: "T"
    value {
      type: DT_BOOL
    }
  }
  attr {
    key: "Tshape"
    value {
      type: DT_INT32
    }
  }
  attr {
    key: "_output_shapes"
    value {
      list {
        shape {
          dim {
            size: 140
          }
        }
      }
    }
  }
}
node {
  name: "init_ops/report_uninitialized_variables/boolean_mask/Where"
  op: "Where"
  input: "init_ops/report_uninitialized_variables/boolean_mask/Reshape_1"
  device: "/device:CPU:0"
  attr {
    key: "T"
    value {
      type: DT_BOOL
    }
  }
  attr {
    key: "_output_shapes"
    value {
      list {
        shape {
          dim {
            size: -1
          }
          dim {
            size: 1
          }
        }
      }
    }
  }
}
node {
  name: "init_ops/report_uninitialized_variables/boolean_mask/Squeeze"
  op: "Squeeze"
  input: "init_ops/report_uninitialized_variables/boolean_mask/Where"
  device: "/device:CPU:0"
  attr {
    key: "T"
    value {
      type: DT_INT64
    }
  }
  attr {
    key: "_output_shapes"
    value {
      list {
        shape {
          dim {
            size: -1
          }
        }
      }
    }
  }
  attr {
    key: "squeeze_dims"
    value {
      list {
        i: 1
      }
    }
  }
}
node {
  name: "init_ops/report_uninitialized_variables/boolean_mask/GatherV2/axis"
  op: "Const"
  device: "/device:CPU:0"
  attr {
    key: "_output_shapes"
    value {
      list {
        shape {
        }
      }
    }
  }
  attr {
    key: "dtype"
    value {
      type: DT_INT32
    }
  }
  attr {
    key: "value"
    value {
      tensor {
        dtype: DT_INT32
        tensor_shape {
        }
        int_val: 0
      }
    }
  }
}
node {
  name: "init_ops/report_uninitialized_variables/boolean_mask/GatherV2"
  op: "GatherV2"
  input: "init_ops/report_uninitialized_variables/boolean_mask/Reshape"
  input: "init_ops/report_uninitialized_variables/boolean_mask/Squeeze"
  input: "init_ops/report_uninitialized_variables/boolean_mask/GatherV2/axis"
  device: "/device:CPU:0"
  attr {
    key: "Taxis"
    value {
      type: DT_INT32
    }
  }
  attr {
    key: "Tindices"
    value {
      type: DT_INT64
    }
  }
  attr {
    key: "Tparams"
    value {
      type: DT_STRING
    }
  }
  attr {
    key: "_output_shapes"
    value {
      list {
        shape {
          dim {
            size: -1
          }
        }
      }
    }
  }
}
node {
  name: "init_ops/init_1"
  op: "NoOp"
  input: "^count_warning/Assign"
  device: "/device:GPU:0"
}
node {
  name: "init_ops/init_all_tables"
  op: "NoOp"
}
node {
  name: "init_ops/group_deps/NoOp"
  op: "NoOp"
  input: "^init_ops/init_all_tables"
}
node {
  name: "init_ops/group_deps/NoOp_1"
  op: "NoOp"
  input: "^init_ops/init_1"
  device: "/device:GPU:0"
}
node {
  name: "init_ops/group_deps"
  op: "NoOp"
  input: "^init_ops/group_deps/NoOp"
  input: "^init_ops/group_deps/NoOp_1"
}
node {
  name: "train_step/GreaterEqual/y"
  op: "Const"
  attr {
    key: "_output_shapes"
    value {
      list {
        shape {
        }
      }
    }
  }
  attr {
    key: "dtype"
    value {
      type: DT_INT64
    }
  }
  attr {
    key: "value"
    value {
      tensor {
        dtype: DT_INT64
        tensor_shape {
        }
        int64_val: 1000000
      }
    }
  }
}
node {
  name: "train_step/GreaterEqual"
  op: "GreaterEqual"
  input: "global_step/read"
  input: "train_step/GreaterEqual/y"
  attr {
    key: "T"
    value {
      type: DT_INT64
    }
  }
  attr {
    key: "_output_shapes"
    value {
      list {
        shape {
        }
      }
    }
  }
}
node {
  name: "train_step/FloorMod/y"
  op: "Const"
  attr {
    key: "_output_shapes"
    value {
      list {
        shape {
        }
      }
    }
  }
  attr {
    key: "dtype"
    value {
      type: DT_INT64
    }
  }
  attr {
    key: "value"
    value {
      tensor {
        dtype: DT_INT64
        tensor_shape {
        }
        int64_val: 1
      }
    }
  }
}
node {
  name: "train_step/FloorMod"
  op: "FloorMod"
  input: "global_step/read"
  input: "train_step/FloorMod/y"
  attr {
    key: "T"
    value {
      type: DT_INT64
    }
  }
  attr {
    key: "_output_shapes"
    value {
      list {
        shape {
        }
      }
    }
  }
}
node {
  name: "train_step/Equal/y"
  op: "Const"
  attr {
    key: "_output_shapes"
    value {
      list {
        shape {
        }
      }
    }
  }
  attr {
    key: "dtype"
    value {
      type: DT_INT64
    }
  }
  attr {
    key: "value"
    value {
      tensor {
        dtype: DT_INT64
        tensor_shape {
        }
        int64_val: 0
      }
    }
  }
}
node {
  name: "train_step/Equal"
  op: "Equal"
  input: "train_step/FloorMod"
  input: "train_step/Equal/y"
  attr {
    key: "T"
    value {
      type: DT_INT64
    }
  }
  attr {
    key: "_output_shapes"
    value {
      list {
        shape {
        }
      }
    }
  }
}
versions {
  producer: 27
}
